model: 2023-05-17 21:40.pth (torch, 51247 bytes, 18 tensors)

Encoder.lstm.weight_ih_l0 f4 [80, 6]
0	0xbf09ad3d	-0.53779966
1	0xbf292594	-0.66072965
2	0x3f962a4c	1.1731658
3	0x3f4b35e6	0.7937912
4	0x3f08c01e	0.5341815
5	0xbf1eff85	-0.6210864
6	0x3f1328e4	0.5748427
7	0x3f365380	0.7122116
8	0x3ebe2544	0.37137806
9	0xbf4fffe8	-0.81249857
10	0xbf096774	-0.5367348
11	0xbea50e1c	-0.32237327
12	0xbe579281	-0.2105198
13	0xbe1d165f	-0.15340565
14	0xbe8f4118	-0.2797935
15	0x3e6eb26e	0.23310253
16	0xbec71754	-0.38884985
17	0x3f421bcc	0.75823665
18	0x3f419780	0.75621796
19	0x3f712381	0.941948
20	0x3c2b676c	0.010461669
21	0xbee9d032	-0.45666653
22	0xbf76125e	-0.96121776
23	0xbefad321	-0.48989204
24	0x3e5282ce	0.2055771
25	0x3e0bcf34	0.1365326
26	0x3e808cb2	0.25107342
27	0xbf7defba	-0.9919392
28	0xbf23e1a6	-0.6401619
29	0xbda1ad11	-0.07894338
30	0x3b95ef8c	0.0045756754
31	0x3efa46f6	0.48882264
32	0x3d6e1586	0.058125995
33	0xbf2f42cf	-0.68461317
34	0xbd8b4c62	-0.06801678
35	0xbe7255f8	-0.23665607
36	0xbe69447d	-0.22780032
37	0xbe4f6bf7	-0.20256029
38	0x3f1cf8d1	0.61317164
39	0xbee724eb	-0.45145354
40	0x3e2e46d4	0.17019206
41	0x3e3d126d	0.1846406
42	0x3f861a9c	1.047687
43	0x3f87d951	1.0613195
44	0xbe36d242	-0.17853644
45	0xbf1901f3	-0.597686
46	0xbd47f867	-0.04882088
47	0xbebb295a	-0.36554986
48	0xbf45e1cb	-0.7729766
49	0xbf6a759d	-0.91585714
50	0x3ef4a125	0.47779194
51	0x3d48b6d8	0.0490025
52	0x3dd75d0b	0.105157934
53	0xbfae4734	-1.361548
54	0xbf420dce	-0.75802314
55	0xbee1bf4a	-0.44091254
56	0xbeb7d580	-0.35905075
57	0x3e434dbd	0.19072624
58	0xbd6fd124	-0.05854906
59	0x3f3230ff	0.6960601
60	0xbf3263da	-0.6968361
61	0xbee53192	-0.44764382
62	0x3f9995d5	1.199885
63	0x3d339886	0.04384663
64	0xbf28bf09	-0.65916497
65	0xbf8e8f08	-1.11374
66	0x3f4558dc	0.77088714
67	0x3f26e09a	0.65186465
68	0x3ea32644	0.31865132
69	0xbe7aa260	-0.24476004
70	0x3f2a4c60	0.6652279
71	0xbf23d77d	-0.64000684
72	0xbefc105b	-0.49231228
73	0xbf1f1ded	-0.6215504
74	0x3f4fb523	0.8113577
75	0xbf223418	-0.6336074
76	0xbe2a99bd	-0.16660209
77	0x3f16e853	0.5894825
78	0xbd714d8e	-0.058911853
79	0x3cfd2b72	0.030904505
80	0x3f8eaf8b	1.1147321
81	0x3ea9d691	0.33171514
82	0xbf126750	-0.5718889
83	0xbf3e65a9	-0.7437387
84	0x3f8a29a1	1.0793954
85	0x3f866ce8	1.0501986
86	0x3f134568	0.5752778
87	0xbdaab8be	-0.08336018
88	0xbece8b64	-0.40340722
89	0xbe106ea6	-0.14104709
90	0x3eaf73d6	0.34268063
91	0x3e5487bf	0.20754908
92	0x3f19b648	0.60043764
93	0x3f4e0759	0.8047996
94	0x3ee12ea9	0.4398091
95	0xbebab63e	-0.36467165
96	0xbf11f428	-0.5701318
97	0xbf22525b	-0.63406914
98	0x3f0058f8	0.50135756
99	0xbf8402b5	-1.0313326
100	0xbda6190c	-0.08110246
101	0x3ee51d87	0.4474909
102	0xbf2d86f3	-0.6778404
103	0xbf534780	-0.82530975
104	0x3f4e35db	0.80550927
105	0x3e7096a0	0.23494959
106	0xbf6ca896	-0.9244474
107	0xbf08e609	-0.53476006
108	0x3eb5daad	0.355184
109	0x3f2443cb	0.64165944
110	0xbd738b33	-0.059458923
111	0xbd3fb86a	-0.04680673
112	0xbf1ca3b6	-0.61187303
113	0xbf0f8391	-0.5606013
114	0xbf8ba802	-1.0910647
115	0xbf68ff02	-0.9101411
116	0x3dfab3b2	0.122413054
117	0x3e9de584	0.3083917
118	0xbdff48cf	-0.12465059
119	0x3e9ba94b	0.30402598
120	0xbf1cb58c	-0.6121452
121	0xbf381787	-0.719109
122	0x3f51e094	0.81983304
123	0x3f506e3a	0.8141819
124	0x3eec888c	0.46197927
125	0xbf68e3f6	-0.9097284
126	0xbbd3517d	-0.006448923
127	0x3de99c98	0.11406821
128	0x3d9ad3c1	0.0755992
129	0xbeddcd3c	-0.43320644
130	0xbf2e4dd4	-0.68087506
131	0xbdc1f75d	-0.09471009
132	0xbea4813c	-0.32129848
133	0xbe13d440	-0.14436436
134	0xbe869cec	-0.26291597
135	0x3c7a5ed3	0.015281397
136	0xbf854401	-1.0411378
137	0x3f52b04b	0.8230025
138	0x3ec46957	0.38361618
139	0x3f6ced74	0.92549825
140	0x3f242e7e	0.6413344
141	0xbf70af83	-0.9401781
142	0xbf99e730	-1.2023678
143	0xbed3d14f	-0.41370627
144	0x3de1df92	0.11028971
145	0x3d8e21fd	0.069400765
146	0x3d10fd4e	0.03539782
147	0xbf583fcb	-0.8447234
148	0xbf08d433	-0.5344879
149	0xbe61ca8f	-0.22049926
150	0x3f343b8e	0.70403373
151	0x3f6d8271	0.9277716
152	0x3d02a591	0.031896178
153	0xbf60725b	-0.8767449
154	0xbe01e055	-0.12683232
155	0xbef17532	-0.47159725
156	0x3e7f6f2a	0.2494475
157	0xbdfaf869	-0.12254412
158	0xbdb08251	-0.08618606
159	0xbf23db4c	-0.64006495
160	0x3e106581	0.1410122
161	0x3df5f4a4	0.12009552
162	0x3f14a3bc	0.5806234
163	0x3f8f238a	1.1182721
164	0xbea04a7e	-0.31306833
165	0xbda65d57	-0.08123272
166	0x3eb5c7ad	0.35503903
167	0xbe106b28	-0.14103377
168	0xbf77ca3c	-0.9679296
169	0xbfa37599	-1.2770263
170	0x3c6b43b0	0.0143594
171	0x3ec9cd12	0.3941427
172	0x3eac37f2	0.33636433
173	0xbf85dca4	-1.0457959
174	0xbeea009c	-0.4570359
175	0xbdb85d7d	-0.090022065
176	0x3ea7b6b2	0.32756573
177	0xbd86c9a9	-0.06581432
178	0xbe7844c9	-0.2424499
179	0x3ead416f	0.33838984
180	0xbf2c3171	-0.6726294
181	0xbe861935	-0.26191106
182	0x3f8f4b92	1.1194937
183	0x3ebddd7d	0.37083045
184	0xbdf83bbb	-0.12120768
185	0xbf7bb4d4	-0.98322797
186	0x3eb058b7	0.34442684
187	0x3e942dd5	0.28941217
188	0x3e319fbd	0.17346092
189	0xbf15552e	-0.583331
190	0x3f8f0415	1.1173121
191	0xbe90a29a	-0.28249055
192	0xbf2d4291	-0.676797
193	0xbf25402c	-0.64551044
194	0xbee868a3	-0.4539233
195	0xbea247b9	-0.31695345
196	0xbdbaeebf	-0.091275685
197	0x3ef867bb	0.4851664
198	0xbea087aa	-0.31353503
199	0xbe60a4fa	-0.21937934
200	0x3f0831d4	0.5320103
201	0x3ed13f38	0.40868545
202	0xbecc8032	-0.39941555
203	0xbea727d0	-0.32647562
204	0x3ebb62f9	0.36598948
205	0x3f1293e0	0.5725689
206	0x3f149067	0.5803284
207	0xbf3f0b66	-0.7462677
208	0xbf91ed21	-1.1400491
209	0xbcfdd9a1	-0.030987563
210	0x3e2a1889	0.16610922
211	0xbe17b919	-0.14816703
212	0x3f6488ed	0.8927143
213	0x3f0bebd9	0.5465675
214	0x3f3464ce	0.70466316
215	0xbe3c8396	-0.18409571
216	0xbf7e9ee0	-0.99461174
217	0xbf025c1b	-0.5092179
218	0xbeb4ecc1	-0.3533688
219	0xbf8b21ac	-1.0869651
220	0xbd35bac6	-0.044367574
221	0x3de92ce6	0.11385517
222	0xbeafa4e9	-0.34305504
223	0xbdbfe0b7	-0.09369033
224	0xbe4c6533	-0.1996048
225	0x3e67e180	0.22644615
226	0xbeb40208	-0.351578
227	0xbcff4797	-0.031162066
228	0x3eae4591	0.3403745
229	0x3e2aa896	0.16665873
230	0x3e822fec	0.25427186
231	0x3ea5318d	0.32264367
232	0x3e2a44fb	0.16627876
233	0xbe377f58	-0.17919672
234	0xbf609cf4	-0.8773949
235	0xbf61c5bc	-0.88192344
236	0xbf169aee	-0.58830154
237	0xbd44d2e2	-0.048052676
238	0x3e05e106	0.13074121
239	0x3f68ed83	0.90987414
240	0xbf8a4edc	-1.0805316
241	0xbf3a1747	-0.7269177
242	0x3f902e2f	1.1264094
243	0x3edb6f9a	0.42858583
244	0xbe25d6a2	-0.16195157
245	0xbead84f0	-0.33890486
246	0x3e6c06c5	0.23049457
247	0x3f0c83a6	0.5488838
248	0xbf55c746	-0.8350719
249	0x3ed0e704	0.4080125
250	0x3f37eb25	0.7184318
251	0xbf5df08b	-0.86695164
252	0x3f09ad82	0.53780377
253	0x3ee3aa62	0.4446593
254	0x3ecd059b	0.4004334
255	0x3dcff50c	0.10154161

Encoder.lstm.weight_hh_l0 f4 [80, 20]
0	0x3f44f6c0	0.7693901
1	0xbf2c4772	-0.67296517
2	0xbf3716f7	-0.71519417
3	0xbf543106	-0.82887304
4	0xbf326540	-0.69685745
5	0xbe075c68	-0.13218844
6	0xbf1f85da	-0.62313616
7	0xbf957d8b	-1.1678938
8	0x3f11fb8a	0.57024443
9	0x3f819ffd	1.012695
10	0xbf80d380	-1.0064545
11	0x3eebe4f8	0.46073127
12	0xbfa36897	-1.2766293
13	0x3fa2da25	1.2722822
14	0x3ecff632	0.4061752
15	0x3f3c9885	0.73670226
16	0xbea36e1d	-0.31919947
17	0xbf851aa6	-1.0398757
18	0xbd72630b	-0.059176486
19	0x3f0dc8f8	0.5538478
20	0xbf432643	-0.7623026
21	0x3df79daf	0.12090623
22	0x3f208918	0.6270919
23	0x3ecefc9c	0.404271
24	0xbdc7b108	-0.09750563
25	0x3f2d8544	0.6778147
26	0xbe5d3ce2	-0.21605256
27	0x3e704613	0.23464231
28	0xbe2cb617	-0.16866337
29	0xbf25a570	-0.6470556
30	0x3f28de08	0.6596379
31	0x3cc4ca8c	0.024022363
32	0xbebdcbf0	-0.37069654
33	0xbf53a602	-0.8267518
34	0x3e05ebda	0.13078251
35	0xbef5b9d6	-0.47993344
36	0x3e80d40f	0.25161788
37	0x3f3ce72e	0.7379025
38	0xbacfc0c0	-0.0015850291
39	0xbf3341ae	-0.70022094
40	0x3f06f340	0.5271492
41	0xbf0e6a71	-0.55631167
42	0x3de0d87f	0.10978793
43	0x3da789ee	0.08180605
44	0x3e8e95de	0.27848715
45	0xbf27e16a	-0.6557833
46	0xbef90835	-0.48639074
47	0xbf75bbb4	-0.9598954
48	0x3de6c3dd	0.11267827
49	0x3f2d0eb2	0.6760055
50	0xbf249a42	-0.6429788
51	0xbe35ee8b	-0.17766778
52	0x3f3b2acf	0.73112196
53	0xbdd22298	-0.102605045
54	0xbf06b1f4	-0.52615285
55	0x3eba10f1	0.3634105
56	0xbef4da4a	-0.4782279
57	0x3de5e228	0.112247765
58	0xbd5260ee	-0.05136197
59	0x3ec283b5	0.3799111
60	0xbeac24fc	-0.33621967
61	0x3eb6eda6	0.35728186
62	0x3f1972ab	0.59940594
63	0x3e99e29c	0.30055702
64	0xbed09155	-0.4073588
65	0x3e81c2cb	0.25343928
66	0x3e933b09	0.28755978
67	0x3f11939a	0.5686585
68	0xbf08cd3d	-0.5343817
69	0xbf2baa96	-0.6705717
70	0x3ed793bd	0.42104903
71	0x3e9121de	0.2834615
72	0xbf08ea90	-0.53482914
73	0xbeacd085	-0.33752838
74	0xbd25f3f7	-0.040515866
75	0xbeebb65c	-0.46037567
76	0x3eab1a75	0.33418623
77	0x3dcc981c	0.0998995
78	0x3d803095	0.06259266
79	0xbf260b46	-0.6486095
80	0xbe548099	-0.20752181
81	0xbea42cc5	-0.32065406
82	0x3e9b251d	0.30301753
83	0xbef7268b	-0.48271593
84	0xbeeff5e2	-0.4686728
85	0x3f0fb393	0.56133384
86	0x3eae86f0	0.34087324
87	0x3f13fe7f	0.57810205
88	0xbead2832	-0.3381973
89	0xbf09cd93	-0.53829306
90	0x3eabfc9e	0.3359117
91	0x3f1d001b	0.61328286
92	0xbea037e5	-0.31292644
93	0xbf94920d	-1.1607071
94	0xbe2f0fe2	-0.17095903
95	0xbdfa1174	-0.1221036
96	0x3f029e47	0.5102276
97	0x3f882c63	1.0638546
98	0xbf603375	-0.8757852
99	0xbf52942f	-0.8225736
100	0xbeaa9782	-0.33318716
101	0xbe6efcd4	-0.23338634
102	0xbdbceb66	-0.09224586
103	0x3f1f65c6	0.6226467
104	0x3e98ff10	0.29882097
105	0x3f0ecd83	0.55782336
106	0xbe500a39	-0.203164
107	0xbef17aa0	-0.47163868
108	0x3d68051e	0.056645505
109	0xbeb505cc	-0.35355985
110	0xbf185507	-0.5950474
111	0xbf20ce81	-0.628151
112	0x3eb9c2ba	0.36281377
113	0x3e6f41e0	0.23364973
114	0xbf964c81	-1.1742097
115	0xbecedce2	-0.40402895
116	0xbe4f5643	-0.2024775
117	0x3eff6981	0.4988518
118	0x3de7e1ea	0.113223866
119	0x3e937881	0.28802875
120	0x3db275a9	0.08713848
121	0x3ea8574f	0.3287911
122	0xbef90722	-0.48638254
123	0xbf794c45	-0.97382003
124	0xbefdca63	-0.4956847
125	0xbe821ad2	-0.25411087
126	0x3f6ca4da	0.92439044
127	0x3f601cef	0.8754415
128	0xbde7b12a	-0.11313088
129	0xbdc8dd96	-0.09807889
130	0x3f425d10	0.7592325
131	0x3f4e6e45	0.8063701
132	0xbe3e7312	-0.18598583
133	0x3f05235f	0.52007097
134	0x3f80f209	1.0073863
135	0xbf43639b	-0.7632386
136	0x3ea26a67	0.31721804
137	0xbf8293d1	-1.020136
138	0xbf1f656b	-0.62264127
139	0x3ec1b6dc	0.37834823
140	0xbf8e8204	-1.1133428
141	0x3f19c62c	0.6006801
142	0x3f4e5ce9	0.8061052
143	0x3f3c2d10	0.7350626
144	0xbe9c2777	-0.3049886
145	0x3e8e8be9	0.27841118
146	0x3f00b97b	0.5028302
147	0x3e117f69	0.1420876
148	0xbf30f0e0	-0.69117546
149	0xbec15581	-0.37760547
150	0x3f138de3	0.57638377
151	0x3ece3e4e	0.4028191
152	0xbf176104	-0.5913241
153	0xbea6e84f	-0.32599112
154	0xbf021426	-0.50811994
155	0xbf13b178	-0.5769267
156	0x3ede9ce7	0.43479082
157	0x3d377a3e	0.044794314
158	0xbe879b4f	-0.2648568
159	0xbe76c908	-0.24100125
160	0x3eb62702	0.35576636
161	0xbf35c48f	-0.7100305
162	0xbf40b0a9	-0.7526956
163	0xbda0908e	-0.078400716
164	0x3f0ffee6	0.5624832
165	0x3d871194	0.0659515
166	0xbf95d980	-1.1707001
167	0xbf2bc40b	-0.6709601
168	0x3ef66a2d	0.4812788
169	0x3ed8deb9	0.42357424
170	0xbf248dc1	-0.642788
171	0xbeb92b4e	-0.3616585
172	0x3f63a5bf	0.88924783
173	0xbf063a94	-0.52433133
174	0xbea7c4ff	-0.32767484
175	0x3faefa63	1.3670162
176	0xbf14ae26	-0.5807823
177	0x3f575ecb	0.8412902
178	0x3f71b74d	0.9442032
179	0xbf1e1ca2	-0.6176244
180	0x3f240c20	0.64081
181	0xbf8efec5	-1.11715
182	0xbeaef97e	-0.34174722
183	0xbd869aea	-0.06572516
184	0x3e3ffcfa	0.18748847
185	0xbf027f79	-0.5097576
186	0xbf2bae9a	-0.67063296
187	0xbf40118a	-0.7502676
188	0x3db9e74a	0.09077318
189	0x3f12fbed	0.5741566
190	0xbf2b30c8	-0.6687131
191	0xbde6c4d9	-0.112680145
192	0x3efac973	0.4898182
193	0x3f34057d	0.70320874
194	0xbe6a9803	-0.2290955
195	0x3f43df94	0.7651303
196	0xbf2e9b78	-0.68205976
197	0xbee6b994	-0.4506346
198	0xbed8f692	-0.42375618
199	0x3f19c4c8	0.6006589
200	0x3f0dfe38	0.5546603
201	0xbf854895	-1.0412775
202	0xbeada2c6	-0.3391325
203	0x3e9f6e47	0.31138822
204	0x3d5c3a14	0.053766325
205	0xbea8b442	-0.32950026
206	0xbf6d5e51	-0.9272204
207	0xbf3951bc	-0.7239034
208	0x3ef535e0	0.47892666
209	0x3da03f8e	0.07824622
210	0xbf8d4811	-1.1037618
211	0xbe771023	-0.2412725
212	0xbca4fd74	-0.020140387
213	0xbe3448f3	-0.17605953
214	0xbdae450e	-0.08509265
215	0x3fa8c4cc	1.3185058
216	0xbee48359	-0.4463146
217	0x3f3c2f97	0.73510116
218	0x3f0be243	0.54642123
219	0xbf735b22	-0.9506093
220	0xbf45260b	-0.77011174
221	0x3e47589c	0.19467396
222	0x3f67de12	0.9057323
223	0xbedcabb6	-0.43099755
224	0xbec43946	-0.38324946
225	0x3f29c9de	0.6632365
226	0x3f122030	0.57080364
227	0x3d0e9dc6	0.034818433
228	0xbed9f503	-0.42569742
229	0xbf6ab3c6	-0.9168056
230	0x3e912f77	0.28356525
231	0x3ea26ace	0.3172211
232	0xbf1dfcdd	-0.61713964
233	0xbb0de125	-0.002164909
234	0xbf2c40c1	-0.67286307
235	0xbf20eccd	-0.6286133
236	0x3eaddc05	0.33956924
237	0x3f763d78	0.96187544
238	0x3f7caa21	0.98697096
239	0xbf53062a	-0.8243128
240	0x3f3ad31a	0.72978365
241	0xbfa78d61	-1.309002
242	0xbe014bad	-0.12626524
243	0x3d7d5310	0.061846793
244	0x3ec55dbb	0.38548073
245	0xbfafc593	-1.373217
246	0xbf73c930	-0.9522886
247	0xbf2e9531	-0.681964
248	0x3f04a8e6	0.5182022
249	0x3dcb95c2	0.099406734
250	0xbf3aa532	-0.7290832
251	0xbe3f21e7	-0.18665276
252	0x3f680dcd	0.9064606
253	0xbf66031f	-0.8984851
254	0x3ecf3b43	0.404749
255	0x3fa39aac	1.2781577

Encoder.lstm.bias_ih_l0 f4 [80]
0	0xbe008c7c	-0.1255359
1	0xbf2db67b	-0.6785657
2	0xbdd5695d	-0.10420487
3	0xbf3c5f24	-0.73582673
4	0xbf066bcc	-0.52508235
5	0x3f1d68e8	0.614882
6	0xbb0a1d48	-0.0021074582
7	0xbee0ee39	-0.4393175
8	0xbe06b6cf	-0.13155673
9	0x3ddbe37e	0.1073675
10	0xbe275dc0	-0.16344357
11	0xbf607d4b	-0.8769118
12	0xbe0d16b1	-0.13778187
13	0xbe9941da	-0.29933053
14	0xbf2d9c87	-0.67816967
15	0xbea75e4d	-0.32689133
16	0x3c82fb3a	0.015988935
17	0xbf1aa1cb	-0.60403126
18	0xbec77459	-0.38955954
19	0x3eadad09	0.33921078
20	0x3e773180	0.24139977
21	0xbee3cade	-0.44490713
22	0xbe7ed362	-0.24885324
23	0xbf100324	-0.5625479
24	0xbed1388a	-0.40863448
25	0x3ed5c093	0.41748485
26	0xbed3554d	-0.41276017
27	0xbefa16c4	-0.48845494
28	0x3ee18909	0.44049862
29	0xbf10bef9	-0.565414
30	0x3da913ce	0.082557306
31	0xbf663cfe	-0.89936817
32	0xbe434012	-0.1906741
33	0xbf8901c4	-1.0703664
34	0xbf412517	-0.7544722
35	0xbf1ad985	-0.6048816
36	0xbe35f87e	-0.17770573
37	0xbf02cee5	-0.51096946
38	0xbf844781	-1.0334321
39	0x3f0e1471	0.5549994
40	0x3e607c23	0.21922354
41	0x3e5248c7	0.20535575
42	0xbf011cd5	-0.5043462
43	0xbd130495	-0.03589304
44	0xbe50b5ed	-0.20381899
45	0xbe760b70	-0.240278
46	0x3ec7aa35	0.38997045
47	0x3f30847f	0.68952173
48	0x3f0e20f1	0.55519015
49	0xbeeab672	-0.4584232
50	0xbe14a833	-0.14517288
51	0x3ea0b090	0.31384706
52	0x3e7064ba	0.23475924
53	0x3e8dc88b	0.27692065
54	0x3e5194e5	0.20466955
55	0xbf0212ec	-0.5081012
56	0xbf349702	-0.7054292
57	0xbeba1ec8	-0.3635161
58	0xbf3e2fab	-0.74291486
59	0x3ec6e53d	0.3884677
60	0xbfae024c	-1.3594451
61	0xbf57a133	-0.84230345
62	0xbeee5a74	-0.46553385
63	0xbf869bfe	-1.0516355
64	0xbed4ea8f	-0.41585204
65	0xbeaa97f6	-0.33319062
66	0x3ee5c71f	0.4487848
67	0x3e8473fb	0.25869736
68	0xbf4990f8	-0.7873683
69	0xbf31ee35	-0.695041
70	0xbf704326	-0.9385246
71	0xbec56744	-0.38555348
72	0xbe96776c	-0.29387987
73	0xbed64a2c	-0.41853464
74	0xbe589ed5	-0.2115434
75	0x3e3693f5	0.17829879
76	0xbea9a377	-0.33132526
77	0xbee7cd93	-0.45274028
78	0xbde59314	-0.112096936
79	0x3eb49fdf	0.35278222

Encoder.lstm.bias_hh_l0 f4 [80]
0	0xbda4defb	-0.08050343
1	0xbed1baf2	-0.4096294
2	0x3d656f5a	0.056014396
3	0xbf368936	-0.7130312
4	0xbee6ddd5	-0.4509112
5	0x3f177930	0.5916929
6	0xbdcb4d1f	-0.09926819
7	0xbf056867	-0.5211243
8	0xbe8a6c45	-0.27035728
9	0x3c89c272	0.016816352
10	0x3db20a3a	0.08693357
11	0xbf3a4987	-0.72768444
12	0xbe7d681a	-0.24746743
13	0xbf12537d	-0.57158643
14	0xbf1f86df	-0.6231517
15	0xbeefcf4e	-0.46837848
16	0x3cfe91ba	0.031075347
17	0xbef16411	-0.47146657
18	0xbd46507f	-0.04841661
19	0x3f08c3dd	0.53423864
20	0x3e516a3c	0.20450681
21	0xbf0a4dba	-0.5402485
22	0xbe442958	-0.19156396
23	0xbf4880bc	-0.78321433
24	0xbe96c1ce	-0.29444736
25	0x3e777c96	0.2416862
26	0xbe5aab58	-0.21354425
27	0xbed3c44a	-0.41360694
28	0x3eaf1ba8	0.34200788
29	0xbeb6e172	-0.35718876
30	0x3d0520a1	0.03250182
31	0xbf811bf8	-1.008666
32	0xbe9137c1	-0.2836285
33	0xbf5e8b1d	-0.8693102
34	0xbf6aafbf	-0.9167442
35	0xbf1aa7d2	-0.60412323
36	0xbd35b2cc	-0.044359967
37	0xbf2fe38d	-0.6870659
38	0xbf789b26	-0.9711174
39	0x3f5250d9	0.82154614
40	0x3e06d8b3	0.13168602
41	0x3ed1b110	0.409554
42	0xbece0c72	-0.4024387
43	0x3e582263	0.21106867
44	0xbde9728a	-0.113988
45	0xbe55cd09	-0.20878996
46	0x3f3ed016	0.74536264
47	0x3f39b82e	0.7254666
48	0x3f3587f7	0.7091059
49	0xbe4c8933	-0.19974212
50	0xbec24b81	-0.3794823
51	0x3f03df7f	0.515129
52	0x3eafe4aa	0.34354144
53	0x3edfd07d	0.4371375
54	0x3e5f91f1	0.21833016
55	0xbf09c2c8	-0.5381284
56	0xbf301cd2	-0.68793976
57	0xbede6495	-0.43436113
58	0xbf3e8c57	-0.7443289
59	0x3ee1c526	0.44095725
60	0xbfcf87e6	-1.6213348
61	0xbf3b4d2a	-0.7316462
62	0xbe9ee69b	-0.31035313
63	0xbf8174ca	-1.0113766
64	0xbdb165f6	-0.08662026
65	0xbf410c9c	-0.75409865
66	0x3ef4bbac	0.47799432
67	0x3e34a514	0.17641097
68	0xbf1e9cc4	-0.61957955
69	0xbee27701	-0.44231418
70	0xbf4458fc	-0.7669828
71	0xbe9567ed	-0.29180852
72	0xbe8fe25c	-0.28102386
73	0xbf22e74c	-0.6363418
74	0xbe3d5daf	-0.18492769
75	0x3f142fa2	0.5788518
76	0xbe8662f0	-0.26247358
77	0xbf0a569e	-0.5403842
78	0xbd8fd7ee	-0.07023607
79	0x3cf11381	0.029428245

Encoder.lstm.weight_ih_l1 f4 [80, 20]
0	0x3df1116f	0.11770903
1	0xbf0742a8	-0.52836084
2	0x3e911400	0.2833557
3	0x3f4ce9c5	0.80044204
4	0x3e9837b6	0.29730004
5	0x3e2b742a	0.16743532
6	0xbf67feb5	-0.9062303
7	0xbf49e070	-0.7885809
8	0x3da982b8	0.08276886
9	0xbe3c1850	-0.1836865
10	0xbeb47355	-0.3524424
11	0xbf12998e	-0.57265556
12	0xbde277ed	-0.1105803
13	0xbe542b3c	-0.20719618
14	0xbf3569ce	-0.7086457
15	0x3f2461f1	0.64211947
16	0xbd291ed5	-0.04128917
17	0x3f02847d	0.5098341
18	0x3f25cd7b	0.64766663
19	0xbedfd48b	-0.43716845
20	0x3d882e74	0.06649485
21	0xbe071dd3	-0.13194971
22	0x3e30e70d	0.17275639
23	0x3f567ad3	0.83781165
24	0x3f475c6c	0.778754
25	0xbe99147e	-0.29898447
26	0xbecd7852	-0.4013086
27	0x3e07fc3a	0.1327981
28	0x3ef647d1	0.48101667
29	0x3a054638	0.0005084011
30	0xbe4bf859	-0.19918956
31	0xbf3ed208	-0.7453923
32	0x3e9403f6	0.28909272
33	0x3ea54d11	0.3228536
34	0xbe3406e4	-0.17580754
35	0xbedeca1d	-0.43513575
36	0xbee13cf9	-0.4399183
37	0xbf0f9323	-0.5608389
38	0xbb39b7a0	-0.0028338209
39	0x3ef5128a	0.47865707
40	0x3e1f8f43	0.15581994
41	0xbe8584c2	-0.2607785
42	0x3d80af33	0.062834166
43	0x3f1f267b	0.6216809
44	0x3ec94070	0.39306974
45	0xbeabded3	-0.3356844
46	0xbf01f328	-0.5076165
47	0xbecafa3c	-0.3964404
48	0x3ee732b3	0.45155868
49	0x3e9910df	0.29895684
50	0xbe8c6c30	-0.2742629
51	0x381b4900	3.7022866e-05
52	0x3eb6fade	0.3573827
53	0xbd8438c3	-0.06456139
54	0xbf47fb03	-0.7811739
55	0x3ec81908	0.39081597
56	0xbf0bf9bf	-0.5467796
57	0xbf0456aa	-0.5169474
58	0xbeebf6df	-0.46086785
59	0x3f108fb3	0.5646927
60	0xbf210c61	-0.62909514
61	0x3eaff855	0.3436915
62	0x3ecef1ff	0.40419003
63	0xbebe21f8	-0.3713529
64	0xbef53db9	-0.47898653
65	0x3f6261df	0.8843059
66	0x3f45d1f1	0.7727347
67	0x3f08ea89	0.5348287
68	0xbeaf59bf	-0.34248158
69	0xbeb70bf7	-0.35751316
70	0x3e6b969a	0.23006669
71	0x3e7ff6e8	0.24996531
72	0xbf126252	-0.57181275
73	0xbf10e219	-0.56595
74	0x3ed16f8f	0.40905425
75	0xbea5c54d	-0.3237709
76	0x3f42257e	0.7583846
77	0x3f0e9f96	0.5571226
78	0x3e82b2c8	0.25527024
79	0xbf3760a9	-0.71631867
80	0xbefdb7d6	-0.49554318
81	0x3f100a58	0.56265783
82	0x3e0e8bbb	0.1392049
83	0xbf3f0751	-0.7462054
84	0xbf2985ba	-0.66219676
85	0x3f538559	0.8262535
86	0x3f254a04	0.64566064
87	0x3f4fd9b2	0.8119155
88	0xbeaeac28	-0.3411572
89	0xbf089c78	-0.5336375
90	0x3f0479e5	0.51748496
91	0x3d299c54	0.04140885
92	0xbf1436a9	-0.57895905
93	0x3f1e2b69	0.6178499
94	0x3f4f9663	0.81088847
95	0xbe7cde30	-0.24694133
96	0x3f4d74e5	0.8025649
97	0xbe5d3c81	-0.21605112
98	0x3dc15652	0.094402924
99	0xbda3436f	-0.07971846
100	0xbec8a351	-0.391871
101	0xbc6fb5c6	-0.0146307405
102	0xbb8a6c93	-0.004224369
103	0x3d987c8e	0.07445632
104	0xbed0ad8c	-0.40757406
105	0x3f1cd631	0.6126433
106	0x3e18fbbc	0.14939779
107	0xbec1f097	-0.37878868
108	0xbebad206	-0.3648836
109	0xbf010c4a	-0.50409377
110	0x3ef8f283	0.48622522
111	0xbf4d0f59	-0.80101544
112	0xbf765ae8	-0.9623246
113	0x3ebbad3b	0.36655602
114	0x3eff002d	0.49804822
115	0x3eab1b67	0.33419344
116	0x3f3d4f7c	0.7394941
117	0xbd26f244	-0.040758386
118	0x3f06fbc2	0.527279
119	0x3e62060e	0.22072622
120	0xbe8679e5	-0.26264873
121	0x3ec41392	0.3829618
122	0xbf5e0d4f	-0.8673906
123	0xbdf27f39	-0.11840672
124	0xbf3fef36	-0.7497438
125	0xbd800f53	-0.06252923
126	0x3e4d2f77	0.20037638
127	0x3e1e65ea	0.15468565
128	0xbebbff10	-0.36718035
129	0xbf09c066	-0.538092
130	0x3f2b3dad	0.66890985
131	0x3f67e1ca	0.905789
132	0xbf057f36	-0.52147233
133	0x3e3fb53e	0.18721482
134	0x3e60e694	0.21962959
135	0x3efe3cac	0.49655664
136	0x3e47511a	0.19464532
137	0xbe917359	-0.28408316
138	0xbf2de3de	-0.6792582
139	0xbe0815e3	-0.13289599
140	0xbe892b78	-0.26790977
141	0x3eb63e17	0.35594246
142	0x3e88e50b	0.26737246
143	0xbef43042	-0.47693068
144	0xbed722f2	-0.4201885
145	0x3f2f08e0	0.6837292
146	0x3eeff758	0.46868396
147	0x3da82066	0.082093045
148	0xbeb3c99a	-0.35114747
149	0xbe89a1a0	-0.26881123
150	0x3ee570c8	0.44812608
151	0x3e989320	0.29799747
152	0xbedea458	-0.4348476
153	0xbef1f6c7	-0.4725859
154	0x3e3a7997	0.18210445
155	0xbf1dd846	-0.6165813
156	0x3eaeda29	0.34150818
157	0x3d0c5855	0.034263927
158	0x3ecf39c8	0.4047377
159	0xbd0d526c	-0.03450243
160	0x3e8b0974	0.2715565
161	0xbf5b576a	-0.8568026
162	0x3e76dcab	0.24107616
163	0x3e911a00	0.2834015
164	0xbc0e1f88	-0.00867451
165	0x3de9f59a	0.11423798
166	0xbf1d29e6	-0.61392057
167	0xbf6ab00b	-0.9167487
168	0x3da2df78	0.079527795
169	0x3efed7ac	0.4977392
170	0x3eecc00c	0.4624027
171	0xbea6c9aa	-0.32575732
172	0x3f25c843	0.647587
173	0xbf5050a8	-0.8137307
174	0xbead78fb	-0.33881363
175	0xbee87cfa	-0.4540785
176	0xbf35ae9d	-0.70969564
177	0x3e9ebbbe	0.3100261
178	0xbf3ba1d7	-0.73293823
179	0x3e9276dd	0.2860631
180	0xbea60a23	-0.3242961
181	0x3f056349	0.5210462
182	0x3f065323	0.52470607
183	0xbf444395	-0.7666562
184	0xbf27e8da	-0.6558968
185	0x3f2cad62	0.6745206
186	0x3e98e408	0.29861474
187	0x3e679d6a	0.22618642
188	0xbe4c4abf	-0.19950388
189	0xbf10f610	-0.5662546
190	0x3f15b355	0.58476764
191	0x3f012d8d	0.5046013
192	0xbeea0025	-0.45703235
193	0xbf92bb71	-1.1463453
194	0x3c719a94	0.014746327
195	0xbe77bc73	-0.24192981
196	0x3ed4ee12	0.41587883
197	0x3f8a2200	1.0791626
198	0x3fd0c0f7	1.6308888
199	0xbf193ef3	-0.5986168
200	0xbea63180	-0.3245964
201	0xbf09be01	-0.5380555
202	0x3f852b26	1.0403793
203	0x3fbe6a00	1.4876099
204	0x3f5b320e	0.8562325
205	0x3d2e395a	0.042535163
206	0xbf49744f	-0.786931
207	0xbd215a7b	-0.03939293
208	0x3e2cd73d	0.16878982
209	0xbf30270e	-0.6880959
210	0x3d477e21	0.04870427
211	0xbef09243	-0.4698659
212	0x3e2fc7ce	0.17166063
213	0xbeb38c3d	-0.3506793
214	0xbda559f0	-0.08073795
215	0xbf1600a8	-0.5859475
216	0xbded34e3	-0.11582353
217	0x3f284a04	0.6573794
218	0xbccfb586	-0.025355112
219	0xbf1e796c	-0.61904025
220	0xbe5de955	-0.2167104
221	0x3ebc3586	0.36759585
222	0x3ebb9877	0.3663976
223	0xbf503a3f	-0.81338876
224	0xbf46a93b	-0.77601975
225	0x3ed13705	0.4086229
226	0x3ed5ae27	0.4173443
227	0xbebfc0fa	-0.37451917
228	0xbf1bbbbe	-0.60833347
229	0xbe8a1bd5	-0.2697436
230	0x3f2084b5	0.62702495
231	0x3f7f0259	0.9961296
232	0xbf140d45	-0.5783275
233	0x3f334139	0.70021397
234	0x3e3436aa	0.17598978
235	0xbdf55fe9	-0.11981184
236	0x3f2535b5	0.64535075
237	0xbf5a4a9f	-0.8527011
238	0x3f19e582	0.60115826
239	0xbf12af39	-0.5729862
240	0x3e78b585	0.24287994
241	0x3f1370b3	0.5759384
242	0x3efac729	0.48980072
243	0xbf60ba5d	-0.8778437
244	0xbf5aa2f4	-0.85404897
245	0xbd2c9611	-0.042135302
246	0x3e1e8d97	0.154837
247	0xbdb56e6c	-0.08858952
248	0xbf02ad90	-0.51046085
249	0x3f111f40	0.5668831
250	0x3efd7247	0.4950125
251	0x3f2d43a1	0.6768132
252	0xbf686283	-0.90775317
253	0x3f3a506b	0.7277896
254	0x3f29e0a8	0.66358423
255	0x3bf159c2	0.0073654363

Encoder.lstm.weight_hh_l1 f4 [80, 20]
0	0xbde2d05f	-0.110749
1	0x3d9425b8	0.07233757
2	0x3d0c148b	0.03419928
3	0x3f0bb8a7	0.5457863
4	0x3f141f51	0.57860285
5	0xbb062fd2	-0.002047528
6	0x3eda7ab1	0.4267173
7	0x3ee77349	0.45205143
8	0x3f2be2c6	0.67142904
9	0x3ebd8a4e	0.3701958
10	0xbe1e2fcc	-0.1544792
11	0x3d0a9930	0.033837497
12	0x3f54703a	0.82983744
13	0x3dbcd819	0.09220905
14	0x3ed16991	0.40900853
15	0x3b89b43d	0.0042023943
16	0xbe840083	-0.2578164
17	0xbc80cacc	-0.015721701
18	0x3ec23e14	0.37937987
19	0x3f2f5ff3	0.6850578
20	0x3ee19e2d	0.4406599
21	0x3f19ca27	0.60074085
22	0x3f0aa0e9	0.5415178
23	0x3efb0bbe	0.49032396
24	0x3edadc8c	0.4274639
25	0xbe57de42	-0.21080878
26	0x3f468de4	0.7756026
27	0x3db81190	0.08987725
28	0xbe886ac9	-0.2664397
29	0x3ee1655a	0.44022638
30	0x3eafea7f	0.34358594
31	0x3e378027	0.1791998
32	0x3e505c83	0.2034779
33	0x3d39fc7d	0.045406807
34	0x3e87b2f9	0.26503733
35	0x3f21692e	0.63051116
36	0x3f612296	0.879434
37	0x3ed8704e	0.42273182
38	0x3f5c2965	0.86000663
39	0x3e0807d3	0.13284235
40	0xbeaaa2b3	-0.33327255
41	0x3eaff285	0.34364715
42	0x3e795af8	0.24351108
43	0x3e927d2e	0.2861113
44	0x3e648941	0.22317983
45	0xbe886c01	-0.266449
46	0x3ef3cc88	0.47616982
47	0x3ef26ebd	0.47350112
48	0x3e6c7772	0.2309244
49	0x3ead2fd7	0.3382556
50	0xbe350e9d	-0.17681356
51	0xbe29f308	-0.16596615
52	0x3f2abfb7	0.66698784
53	0x3e9d5235	0.3072678
54	0x3e93b687	0.28850195
55	0x3bdd5cac	0.006755432
56	0xbdd59f7d	-0.104308106
57	0x3e13c818	0.14431798
58	0x3e8f6b1e	0.2801141
59	0x3f21cc75	0.632026
60	0xbf4ab33f	-0.7917976
61	0xbf0cebd3	-0.5504734
62	0xbf425ab9	-0.7591968
63	0xbeb457b2	-0.35223156
64	0xbf2842d2	-0.6572696
65	0xbf02a4ce	-0.5103272
66	0xbeada0a3	-0.3391162
67	0xbf04f84c	-0.5194137
68	0x3ec9ddca	0.39427024
69	0xbf078ee3	-0.529524
70	0xbf28b2be	-0.6589774
71	0x3ea328a2	0.31866938
72	0xbef5abe1	-0.47982696
73	0x3f4bf692	0.7967311
74	0xbf050a29	-0.5196863
75	0xbebddb0f	-0.3708119
76	0xbeb28457	-0.34866592
77	0xbf32a1a6	-0.69777906
78	0xbece5523	-0.4029933
79	0xbee4f5f7	-0.44718906
80	0xbedb54a0	-0.42838
81	0xbf33b5ab	-0.7019908
82	0x3d2fbe30	0.042905986
83	0xbe9ee05f	-0.31030557
84	0xbe507028	-0.20355284
85	0x3ea296f4	0.31755793
86	0xbf01542e	-0.50519073
87	0xbe42e9c2	-0.19034484
88	0x3e3e9457	0.18611275
89	0xbe8aaa1c	-0.27082908
90	0xbe9ee809	-0.31036404
91	0x3f080a98	0.53141165
92	0xbf1ea81a	-0.6197525
93	0x3f11046b	0.56647366
94	0xbdd7946c	-0.10526356
95	0xbef019b9	-0.46894625
96	0x3e510af5	0.20414336
97	0xbf152c99	-0.58271176
98	0xbeda4c52	-0.42636353
99	0xbf0da12e	-0.55324066
100	0xbdcb9373	-0.09940233
101	0xbc4e301c	-0.012584712
102	0xbeb9b40a	-0.3627017
103	0x3f1593f6	0.58428895
104	0x3f431149	0.7619825
105	0xbebb08c7	-0.36530134
106	0x3f3b38bf	0.7313346
107	0x3eb2c447	0.34915373
108	0x3f003f9d	0.50097066
109	0x3de5f7ba	0.11228891
110	0xbdf483de	-0.11939214
111	0x3eb9448b	0.36185107
112	0x3ed4d941	0.41572002
113	0x3c868460	0.016420543
114	0xbdc4bc7e	-0.096062645
115	0xbe8d8774	-0.27642405
116	0x3dfe5d82	0.12420179
117	0xbeaae445	-0.3337728
118	0x3e93ca67	0.28865358
119	0x3f3ab0f2	0.7292625
120	0x3ebcd1e8	0.36878896
121	0x3e64ff88	0.22363102
122	0xbe20b726	-0.15694866
123	0xbf658e08	-0.8966985
124	0xbf21bf96	-0.6318296
125	0x3e74f91d	0.23923154
126	0xbf02b9af	-0.5106458
127	0xbeb3ced3	-0.35118732
128	0xbf3fc7f2	-0.7491447
129	0xbe6a6267	-0.228891
130	0x3d61d440	0.055134058
131	0xbe2c446f	-0.1682298
132	0xbf456940	-0.77113724
133	0x3e482aa8	0.19547522
134	0xbf80484d	-1.0022064
135	0x3e11e56f	0.14247678
136	0xbea6ebc4	-0.3260175
137	0x3ee8e8f3	0.45490226
138	0xbec07b4e	-0.37594074
139	0xbf483819	-0.782106
140	0xbf33b0f1	-0.70191866
141	0xbf0b90cc	-0.5451782
142	0xbd3da629	-0.04630104
143	0xbf0a0c9d	-0.53925496
144	0xbec79261	-0.38978866
145	0xbe023f02	-0.12719348
146	0xbf56b934	-0.8387635
147	0xbf050735	-0.5196412
148	0x3f194295	0.5986722
149	0xbf1becc1	-0.6090813
150	0xbedc91ba	-0.4307993
151	0x3e806762	0.25078875
152	0xbe49f475	-0.19722159
153	0x3eddb234	0.4330002
154	0xbe8e4363	-0.27785787
155	0xbf4b3535	-0.7937806
156	0xbf0a308e	-0.5398034
157	0xbed70666	-0.4199707
158	0xbedf298a	-0.4358638
159	0xbe560aea	-0.20902601
160	0xbeeb9031	-0.46008447
161	0x3e2c9557	0.16853844
162	0x3ce5c560	0.028048217
163	0x3eb46f53	0.35241184
164	0x3bd54c8d	0.0065093697
165	0xbf2ded2a	-0.6794001
166	0xbe1c8f13	-0.15288953
167	0x3ed093bc	0.40737712
168	0x3f29a0fe	0.6626128
169	0x3f13e3d1	0.57769495
170	0xbe22a56d	-0.15883417
171	0xbf8bc8fd	-1.0920712
172	0x3fa12609	1.2589732
173	0x3eb0df8b	0.3454555
174	0x3f1ea95d	0.6197718
175	0xbf1b618e	-0.6069573
176	0xbf7c1d6e	-0.98482406
177	0xbdb11f7e	-0.08648585
178	0x3e8cd6ce	0.27507633
179	0x3fa21ca7	1.2664994
180	0xbf1927c8	-0.59826326
181	0xbf85d394	-1.0455194
182	0xbf06d6e9	-0.52671677
183	0xbf1b3e9e	-0.6064242
184	0xbec5bad1	-0.38619092
185	0xbe9dbf3d	-0.30809966
186	0xbefbaf94	-0.49157393
187	0xbecf8d62	-0.40537554
188	0x3e97bd55	0.29636636
189	0xbeefffa9	-0.4687474
190	0xbf7149da	-0.94253314
191	0x3cdfb40e	0.027307536
192	0xbe982054	-0.29712164
193	0x3eb8d419	0.36099318
194	0xbeeb6482	-0.4597512
195	0xbf02f3a5	-0.5115302
196	0xbf059b61	-0.52190214
197	0xbf454ff2	-0.7707511
198	0xbecd58fd	-0.40106955
199	0xbeb40b67	-0.3516495
200	0x3e225589	0.15852942
201	0x3da11d0d	0.07866869
202	0x3e9b5f86	0.30346316
203	0x3ed59284	0.41713345
204	0x3f096bf3	0.5368034
205	0xbf249697	-0.6429228
206	0x3f183122	0.5944997
207	0x3d8cedb7	0.06881278
208	0x3ec29a7e	0.38008493
209	0x3ee292c9	0.44252613
210	0x3ceb39c0	0.02871406
211	0xbea7fb67	-0.32808992
212	0x3f7ed935	0.9955018
213	0x3df48a69	0.11940462
214	0x3f2bf99e	0.6717776
215	0x3d56c7bb	0.05243657
216	0xbd4b90a3	-0.049698483
217	0x3af7e090	0.0018911529
218	0x3f3cf339	0.7380863
219	0x3f70f0b6	0.94117296
220	0xbeb04f6d	-0.34435597
221	0xbf4f2a4c	-0.80923915
222	0x3e87da70	0.26533842
223	0xbf4ee3d8	-0.8081641
224	0xbf3fe098	-0.7495208
225	0xba07cf40	-0.0005180724
226	0xbecc647f	-0.39920422
227	0xbf55d4a1	-0.8352757
228	0x3e92f148	0.28699708
229	0xbf407dcd	-0.75191957
230	0xbf0cfc99	-0.55072933
231	0x3e9cd999	0.30634764
232	0xbf20c08f	-0.6279382
233	0x3e5c201b	0.21496622
234	0xbf018668	-0.5059571
235	0xbf6e4a51	-0.9308215
236	0xbf5f90d6	-0.8733038
237	0xbe61f863	-0.22067408
238	0xbedb341c	-0.42813194
239	0xbec9119f	-0.39271256
240	0xbe034a7b	-0.12821381
241	0xbf06655d	-0.5249842
242	0xbeed4549	-0.46341923
243	0xbefd3d1a	-0.4946068
244	0xbee0b498	-0.43887782
245	0xbeacf26a	-0.33778697
246	0xbf0d3262	-0.55155003
247	0xbf5e7fee	-0.86913955
248	0x3f863fb1	1.0488187
249	0xbefd8a51	-0.4951959
250	0xbedbf290	-0.42958498
251	0x3f41bd3d	0.7567938
252	0xbc86393e	-0.016384717
253	0x3ecf46cc	0.404837
254	0xbde6b295	-0.112645306
255	0xbf308ca9	-0.6896463

Encoder.lstm.bias_ih_l1 f4 [80]
0	0xbd1db840	-0.038505793
1	0x3f2ea12a	0.68214667
2	0x3bb94a97	0.0056546438
3	0xbefabca1	-0.48972037
4	0xbe1ab42e	-0.15107796
5	0x3da2999e	0.079394564
6	0xbe0df100	-0.13861465
7	0xbf2139a0	-0.62978554
8	0xbf0a0a5c	-0.5392206
9	0xbf0f1ffb	-0.55908173
10	0x3ecb1822	0.3966685
11	0xbf68703a	-0.90796244
12	0xbef7aef3	-0.48375663
13	0xbf4a50f5	-0.7902978
14	0xbf350504	-0.7071078
15	0x3e9a55aa	0.30143481
16	0x3f01f29c	0.5076082
17	0x3f09079e	0.5352725
18	0xbef398c7	-0.47577497
19	0xbf0735cc	-0.5281646
20	0xbf136b11	-0.57585245
21	0x3e01ac16	0.12663302
22	0xbdc14256	-0.09436481
23	0xbe94c319	-0.29055098
24	0xbefe05e1	-0.4961386
25	0xbe8a2162	-0.26978594
26	0xbef9bda0	-0.48777485
27	0xbf39b26c	-0.72537875
28	0xbf2f002a	-0.68359625
29	0xbed7f1a0	-0.42176533
30	0xbcd68865	-0.026188085
31	0xbf5f0ccd	-0.8712891
32	0xbf5ffff6	-0.8749994
33	0xbf5e4ffa	-0.86840785
34	0xbf45affd	-0.7722166
35	0xbe608656	-0.21926245
36	0x3e8d02c9	0.27541187
37	0x3e37509e	0.17901847
38	0xbe7c9934	-0.24667817
39	0xbf47eb80	-0.7809372
40	0x3e9e36fd	0.30901328
41	0x3f882eef	1.0639323
42	0x3de2c3aa	0.11072476
43	0xbd863fe7	-0.06555157
44	0xbea8c90d	-0.3296589
45	0x3be73732	0.0070561403
46	0xbe63fb29	-0.22263779
47	0xbeba9e8a	-0.3644908
48	0xbe9efb8b	-0.31051287
49	0xbe825c98	-0.25461268
50	0x3f8d9322	1.1060526
51	0x3c7f81e6	0.015594935
52	0xbeea97ef	-0.4581904
53	0xbea35986	-0.31904238
54	0x3e220ffa	0.15826407
55	0x3f87821f	1.0586585
56	0x3f5c7c9e	0.8612765
57	0x3f1554c1	0.5833245
58	0xbe28dc8b	-0.1649038
59	0xbea043af	-0.31301638
60	0x3e0c2ad1	0.13688208
61	0x3f74e1c6	0.95657
62	0xbcc3a381	-0.023881676
63	0xbeacaf05	-0.3372728
64	0xbe5405c4	-0.20705324
65	0x3da4682a	0.0802768
66	0x3ed36eab	0.4129537
67	0xbf289495	-0.6585172
68	0xbf02ecfd	-0.51142865
69	0xbf0e1d60	-0.5551357
70	0x3f1d7603	0.61508197
71	0xbf3524ee	-0.70759475
72	0xbf6b1933	-0.91835326
73	0x3e5ea163	0.21741252
74	0x3e1f71ad	0.15570708
75	0x3e8d25fb	0.2756804
76	0xbdb2eca8	-0.08736545
77	0x3cb8c20b	0.022553464
78	0xbf405227	-0.75125355
79	0xbeea1331	-0.45717767

Encoder.lstm.bias_hh_l1 f4 [80]
0	0xbd885a7c	-0.066578835
1	0x3f2d57a8	0.6771188
2	0x3de690de	0.112581
3	0xbf1b57f7	-0.606811
4	0xbe6a822c	-0.22901219
5	0x3e6ed053	0.23321657
6	0xbd84dd57	-0.0648753
7	0xbf26d754	-0.65172315
8	0xbee66783	-0.45000848
9	0xbf3a6513	-0.72810477
10	0x3e356326	0.17713603
11	0xbf7599f0	-0.95938015
12	0xbf395a92	-0.72403824
13	0xbf716dd9	-0.9430824
14	0xbeaa0eb3	-0.3321434
15	0x3ed9de6b	0.42552504
16	0x3f0e9c6a	0.5570742
17	0x3eacee79	0.3377569
18	0xbf091cc5	-0.53559524
19	0xbf4c9aab	-0.79923505
20	0xbed3c530	-0.4136138
21	0x3bf52dcb	0.0074822656
22	0xbea0a5ab	-0.31376395
23	0xbf06aa2f	-0.5260343
24	0xbf0c1f6d	-0.5473545
25	0xbea338e0	-0.3187933
26	0xbf06986d	-0.52576333
27	0xbf12085c	-0.57044005
28	0xbecc6906	-0.39923877
29	0xbec84f80	-0.39123154
30	0xbe0c206e	-0.13684246
31	0xbf19133b	-0.5979497
32	0xbf3c1e0c	-0.7348335
33	0xbf68372e	-0.907092
34	0xbf39f35e	-0.72636974
35	0xbd9a3f74	-0.07531634
36	0x3d926586	0.0714827
37	0x3e313290	0.17304444
38	0xbec58d42	-0.38584334
39	0xbf0950a8	-0.53638697
40	0x3e55ec34	0.20890886
41	0x3f8f7ec8	1.1210566
42	0xbd8ee7d5	-0.06977812
43	0x3e126f2c	0.14300221
44	0x3de07645	0.10960058
45	0xbd8a13ce	-0.06742059
46	0xbe6a327f	-0.22870825
47	0xbe91926a	-0.28432018
48	0xbe9a86b8	-0.30180907
49	0xbcf7baf9	-0.030240523
50	0x3f44368d	0.7664574
51	0x3ec6a9b2	0.38801342
52	0xbed22469	-0.41043404
53	0xbea96e6b	-0.33092055
54	0x3ca643d3	0.020296013
55	0x3f868f34	1.0512452
56	0x3f4b4736	0.79405534
57	0x3efeb346	0.4974615
58	0x3e261a80	0.16221046
59	0xbeceed0c	-0.40415227
60	0x3db84225	0.08996991
61	0x3f7db61d	0.9910601
62	0x3ebf198c	0.37324178
63	0xbeb91333	-0.3614746
64	0xbed7a0aa	-0.42114764
65	0x3dab3e24	0.08361462
66	0x3ea72be5	0.32650676
67	0xbf4df14c	-0.80446315
68	0xbeb299fc	-0.34883106
69	0xbf22db08	-0.63615465
70	0x3f15fcf4	0.585891
71	0xbf0e53f1	-0.55596834
72	0xbf1ab8e7	-0.6043839
73	0xbe2201bd	-0.15820976
74	0xbe2d3e8d	-0.16918392
75	0x3ea68d16	0.32529515
76	0xbee09341	-0.43862346
77	0x3d31564e	0.043295197
78	0xbf63b412	-0.8894664
79	0xbf1add30	-0.60493755

Decoder.lstm.weight_ih_l0 f4 [80, 6]
0	0x3e5fd2e6	0.21857795
1	0x3f17fee2	0.59373295
2	0x3ecd03e1	0.40042022
3	0xbf1fdcce	-0.62446296
4	0xbeb60bf4	-0.35555995
5	0xbf6ca935	-0.9244569
6	0x3f2c27b5	0.6724809
7	0x3e282e67	0.16423951
8	0xbf4a279a	-0.7896668
9	0xbf26aff9	-0.6511226
10	0xbe73f518	-0.23823965
11	0xbef9dc58	-0.4880092
12	0x3ddfe39a	0.109320834
13	0x3ebcb689	0.36858013
14	0x3e9aa32a	0.3020261
15	0x3e360ba4	0.17777878
16	0xbf1d6aa5	-0.6149085
17	0xbf88aaed	-1.0677162
18	0xbe9df4b9	-0.3085077
19	0xbeda0d48	-0.42588258
20	0x3f09781c	0.536989
21	0x3e2a4c80	0.16630745
22	0xbe91586f	-0.28387782
23	0x3f56ec0b	0.83953923
24	0x3f16a029	0.58838135
25	0x3f531508	0.82453966
26	0x3f2288b6	0.63489854
27	0x3e1110ee	0.14166614
28	0xbf5037ff	-0.81335443
29	0xbf506b1e	-0.8141345
30	0x3d10a6dd	0.035315383
31	0xbe4280b9	-0.18994416
32	0xbf2911a9	-0.6604257
33	0xbeb8762c	-0.36027658
34	0x3ee17c66	0.4404022
35	0xbbd1d497	-0.0064035165
36	0xbf30c45e	-0.6904963
37	0xbed7439c	-0.4204377
38	0x3f52e359	0.82378155
39	0x3ed7e320	0.4216547
40	0x3edbd8f7	0.4293897
41	0x3efbd83e	0.49188417
42	0x3ea5d8c5	0.32391945
43	0x3e927724	0.28606522
44	0x3f74082c	0.9532497
45	0x3f82e090	1.0224781
46	0xbd25918a	-0.040422
47	0xbf71b30b	-0.9441382
48	0xbf0a8369	-0.54106766
49	0xbf5d53a0	-0.86455727
50	0xbf4aebc7	-0.7926602
51	0xbee3c5a5	-0.44486728
52	0x3e2fe6fc	0.17177957
53	0x3f0a1b74	0.5394814
54	0xbdbea550	-0.093088746
55	0x3f1de519	0.616777
56	0x3f49f5b9	0.7889057
57	0x3f070050	0.5273485
58	0xbedc46fb	-0.43022904
59	0xbf960f06	-1.1723335
60	0xbe489583	-0.19588284
61	0xbed24083	-0.41064844
62	0xbf85303f	-1.0405349
63	0x3f2f495b	0.68471307
64	0x3f159574	0.5843117
65	0xbe8bdfee	-0.27319282
66	0xbf2d9159	-0.6779991
67	0xbf067108	-0.5251622
68	0xbe517da2	-0.20458081
69	0xbf1d5a22	-0.61465657
70	0xbf308048	-0.6894574
71	0x3f65f9c0	0.89834213
72	0x3d13847b	0.036015015
73	0xbeaf1c26	-0.34201163
74	0xbec8f1ec	-0.39247072
75	0xbcb028a0	-0.021503747
76	0x3f1d5468	0.6145692
77	0x3e27483b	0.16336147
78	0x3f0897d5	0.5335668
79	0x3f32652c	0.69685626
80	0xbe4fcfb1	-0.20294072
81	0x3d381d66	0.04494991
82	0xbcaf81c2	-0.021424178
83	0xbd15c38a	-0.036563434
84	0xbe8c2845	-0.27374473
85	0xbe61b0c0	-0.22040081
86	0x3f311726	0.69175947
87	0x3eca106c	0.39465654
88	0xbf15da08	-0.58535814
89	0xbf5815be	-0.84408176
90	0x3df6601c	0.1203005
91	0x3de9d7fd	0.114181496
92	0x3eeaa67d	0.45830145
93	0xbf99ebd7	-1.2025098
94	0xbef6f7c1	-0.48235896
95	0xbf75c7e6	-0.96008146
96	0x3eda5e21	0.4264994
97	0x3e2731a5	0.16327532
98	0xbf0a07c1	-0.5391808
99	0xbe39b6ee	-0.18136188
100	0x3f8604d5	1.0470225
101	0x3e9c26b3	0.30498275
102	0xbddd41d4	-0.10803571
103	0xbf34c685	-0.70615417
104	0x3ed0ad8b	0.40757403
105	0x3f133dbe	0.57516086
106	0xbbfc495e	-0.0076991757
107	0xbefdd941	-0.49579814
108	0x3e7f7a13	0.24948911
109	0x3c1bb7f4	0.009504307
110	0xbf4b71db	-0.79470605
111	0x3ee689e9	0.45027092
112	0x3f2053d9	0.6262794
113	0x3eb25d01	0.3483658
114	0x3e98d915	0.2985312
115	0x3e2860c6	0.16443166
116	0x3ebac97d	0.36481848
117	0xbe2cc1e0	-0.16870832
118	0x3d286494	0.041111544
119	0x3e6cbc1d	0.23118635
120	0x3cff86c8	0.031192198
121	0xbb9b7ee4	-0.004745351
122	0x3f623579	0.8836284
123	0x3f458dfe	0.7716979
124	0x3f8c7da3	1.0975841
125	0xbf488d3b	-0.783405
126	0xbe2e43d8	-0.17018068
127	0xbe5f8562	-0.21828225
128	0x3f278dda	0.65450823
129	0x3d5e7c83	0.054317962
130	0xbd94c1a8	-0.072634995
131	0x3e4ea11a	0.20178643
132	0xbe3b1fff	-0.18273924
133	0x3d533c9b	0.05157147
134	0x3f2a5804	0.6654055
135	0x3f69725b	0.9119012
136	0x3e3bf03f	0.18353365
137	0xbf821283	-1.0161899
138	0x3d436594	0.047704294
139	0x3eb7915f	0.35853097
140	0x3f143d0c	0.5790565
141	0x3ecd9751	0.40154508
142	0xbeebce4d	-0.46055833
143	0xbe3768d6	-0.17911085
144	0xbda4c998	-0.080462635
145	0xbcbc7d56	-0.023008984
146	0x3e8b39b5	0.27192464
147	0x3d745404	0.059650436
148	0x3c2a0d0f	0.01037909
149	0xbf14e6dd	-0.5816477
150	0xbefb728e	-0.49110836
151	0xbca02d2e	-0.019552793
152	0xbeada082	-0.3391152
153	0xbf565dac	-0.8373668
154	0xbf651bc8	-0.89495516
155	0xbefec7d2	-0.49761826
156	0xbf6f19c1	-0.9339867
157	0xbee8488f	-0.45367858
158	0x3f2f483f	0.68469614
159	0x3e93eecb	0.28893122
160	0xbe920d64	-0.2852584
161	0xbe7665f1	-0.24062325
162	0xbe53c96b	-0.20682304
163	0xbcbf7108	-0.023369327
164	0x3f62343c	0.88360953
165	0x3f4e37fd	0.8055418
166	0x3e660115	0.2246135
167	0xbf5683a8	-0.8379464
168	0xbf44ee23	-0.7692587
169	0xbf974933	-1.1819214
170	0x3b95ce7c	0.004571734
171	0xbe3bcd04	-0.18339926
172	0x3ea3d6b6	0.3199975
173	0x3ef63080	0.48083878
174	0xbcb8be4e	-0.022551682
175	0x3eb3894e	0.35065693
176	0x3e55bf54	0.20873767
177	0x3ec74092	0.3891645
178	0xbe50cf1b	-0.20391504
179	0xbeb93be1	-0.36178496
180	0x3da96a7f	0.08272266
181	0x3ec6dc2a	0.38839847
182	0x3e467409	0.19380201
183	0x3f6e138e	0.9299859
184	0x3e56a6a3	0.20962004
185	0xbf5d302e	-0.8640164
186	0xbf2baa0f	-0.67056364
187	0xbeacfe7f	-0.33787915
188	0x3f1b1ca0	0.60590553
189	0x3d8ff3ed	0.07028947
190	0xbeca4a2e	-0.3950972
191	0xbd73e1cc	-0.05954151
192	0x3d03ce78	0.032179326
193	0xbf12eb24	-0.57390046
194	0xbe87b26a	-0.26503307
195	0xbbd4281a	-0.006474507
196	0x3f32ef89	0.6989675
197	0xbd0660d0	-0.03280717
198	0x3d507dec	0.05090134
199	0xbd8d0463	-0.06885602
200	0xbe11288e	-0.14175627
201	0x3e069e8c	0.13146418
202	0xbf104f67	-0.5637116
203	0xbd0fce7d	-0.035109032
204	0xbddc826b	-0.10767063
205	0x3e74449b	0.23854296
206	0x3f284cbf	0.65742105
207	0xbe4f85c7	-0.20265876
208	0xbf35b04e	-0.70972145
209	0x3c50cd1b	0.012744213
210	0x3c0f049a	0.008729124
211	0x3eac712c	0.33680093
212	0x3ea92bf0	0.33041334
213	0xbf586ebe	-0.8454398
214	0xbe94ed78	-0.29087424
215	0xbf612db0	-0.8796034
216	0x3f5d7b12	0.86515915
217	0x3ed0434a	0.40676337
218	0xbf03e5e8	-0.51522684
219	0xbf4505d6	-0.7696203
220	0x3f85cef3	1.0453781
221	0x3ed7ce64	0.4214965
222	0xbddf48f1	-0.10902584
223	0xbec98503	-0.39359292
224	0x3ec9e2ac	0.3943075
225	0x3f12f970	0.5741186
226	0xbe8b4e67	-0.27208254
227	0xbf42a86e	-0.76038253
228	0xbe6fba23	-0.2341085
229	0xbe500848	-0.20315659
230	0xbd816fe0	-0.063201666
231	0xbeef9165	-0.46790615
232	0x3e454a50	0.19266629
233	0x3dadac5f	0.08480143
234	0xbde77c72	-0.11303033
235	0xbe6d757d	-0.2318935
236	0xbf5b1db1	-0.8559218
237	0xbf6aa460	-0.91657066
238	0x3e887072	0.2664829
239	0x3f22d700	0.63609314
240	0xbd8e2486	-0.0694056
241	0xbdb2b8a5	-0.087266244
242	0xbf3697ca	-0.7132536
243	0xbf9fc606	-1.2482307
244	0xbf6bc738	-0.9210086
245	0x3eba2d77	0.36362812
246	0x3f7a0b5f	0.976736
247	0x3f545552	0.8294269
248	0x3e2bf3c8	0.16792214
249	0x3ee0dd6b	0.43918929
250	0x3f493e94	0.7861111
251	0xbf5847ba	-0.84484446
252	0xbe682507	-0.22670375
253	0xbc52ef70	-0.012874469
254	0x3f224c20	0.6339741
255	0x3fa33fcc	1.2753844

Decoder.lstm.weight_hh_l0 f4 [80, 20]
0	0x3d564904	0.052315727
1	0x3f25863b	0.64657944
2	0xbe84c17b	-0.25928864
3	0x3f0f9674	0.5608895
4	0xbf13e817	-0.57776016
5	0x3da5fa3c	0.08104369
6	0xbf72a510	-0.94783115
7	0x3e859719	0.2609184
8	0xbeb7f9c5	-0.35932747
9	0xbe857b46	-0.26070613
10	0x3f950630	1.1642513
11	0xbea8cb87	-0.3296778
12	0xbf91e9a6	-1.1399429
13	0x3ed78ff5	0.42102018
14	0x3ed78f8d	0.42101708
15	0x3dbd355b	0.092386924
16	0x3f10efac	0.5661571
17	0x3efd77d4	0.49505484
18	0xbebd44f5	-0.36966673
19	0xbf30dde8	-0.690886
20	0x3e8ead31	0.2786651
21	0x3eef16fb	0.4669722
22	0xbe8ed439	-0.27896288
23	0x3f8418d9	1.0320083
24	0xbf0dc79b	-0.553827
25	0xbc499ff3	-0.012306201
26	0xbe70289c	-0.23452991
27	0x3f5d3319	0.86406094
28	0x3f33ccb2	0.70234215
29	0xbe7a5fc8	-0.244506
30	0x3e0d3e6a	0.1379334
31	0xbf7d20d5	-0.9887822
32	0xbda5c26d	-0.080937244
33	0x3d9e2778	0.07722372
34	0x3eb4fff3	0.35351524
35	0xbdb23c68	-0.08702928
36	0xbe7e7d25	-0.24852426
37	0xbe03ec94	-0.12883216
38	0xbe6150d2	-0.22003487
39	0x3e88c314	0.26711333
40	0xbe03b920	-0.12863588
41	0x3f54d9d8	0.83144903
42	0xbe4184fe	-0.18898389
43	0x3dcce43d	0.100044705
44	0xbecb5803	-0.39715585
45	0xbe4e9af8	-0.20176303
46	0xbeea90c6	-0.45813578
47	0x3e1db528	0.15401137
48	0xbf8bf100	-1.0932922
49	0x3ed0a4e0	0.4075079
50	0x3f24afaa	0.6433054
51	0x3e2495b0	0.16072726
52	0xbf298020	-0.6621113
53	0x3ed3e086	0.41382235
54	0x3f0e102b	0.5549342
55	0xbee8aade	-0.4544286
56	0x3e1fb25f	0.15595387
57	0xbee86730	-0.45391226
58	0xbd1283bd	-0.035770167
59	0xbedb15bf	-0.42790028
60	0xbeaff2ae	-0.34364837
61	0xbe2fd001	-0.17169191
62	0x3ea56ecb	0.3231109
63	0x3eaec78f	0.34136626
64	0x3ec027d8	0.37530398
65	0xbecdffdc	-0.40234268
66	0xbe7408ea	-0.23831525
67	0xbf094816	-0.5362562
68	0xbd8bf054	-0.06832948
69	0xbe8ef70a	-0.2792285
70	0xbc24ad1a	-0.010051036
71	0x3f0ecba5	0.55779487
72	0x3f1a57fe	0.60290515
73	0xbf2f5e15	-0.6850293
74	0xbe9b9f60	-0.3039503
75	0x3df8231d	0.12116072
76	0xbf6e8ed7	-0.93186706
77	0xbe2a9ddc	-0.16661781
78	0x3f28c249	0.65921456
79	0x3f21e934	0.63246465
80	0x3e16a675	0.14711936
81	0x3f45c6b5	0.7725633
82	0xbeebd41c	-0.46060264
83	0x3f19cc50	0.6007738
84	0xbd353e65	-0.044248957
85	0xbd2160a2	-0.039398797
86	0xbf864077	-1.0488423
87	0x3eb90706	0.3613817
88	0xbf51bda6	-0.81930006
89	0xbef31035	-0.47473302
90	0x3f88e7ce	1.0695741
91	0xbe684568	-0.22682726
92	0xbf65ac46	-0.89715993
93	0x3db5244c	0.08844814
94	0x3ef0d96d	0.47040883
95	0x3dfffd90	0.12499535
96	0x3e1e84e4	0.15480381
97	0xbde92a33	-0.11385002
98	0xbe3032cc	-0.17206877
99	0xbf8fe4cf	-1.1241702
100	0xbe1c98d7	-0.15292679
101	0xbf1ee468	-0.6206727
102	0x3e7421e5	0.23841055
103	0xbd106048	-0.03524807
104	0x3eca7fcf	0.39550635
105	0xbec5b3d2	-0.38613755
106	0x3f5db5dd	0.86605626
107	0xbf5ce0f1	-0.86280733
108	0x3db3dd28	0.087824166
109	0xbee23a73	-0.44185218
110	0xbf625f21	-0.88426405
111	0x3eca5c8e	0.3952374
112	0x3f426216	0.7593092
113	0x3c519f24	0.01279429
114	0xbf1de5ad	-0.6167858
115	0x3ebbe852	0.36700684
116	0x3e53ccff	0.20683669
117	0xbe30f377	-0.17280374
118	0x3e316845	0.17324932
119	0x3f4d881d	0.8028582
120	0xbf0fd82e	-0.5618924
121	0xbe02ef98	-0.1278671
122	0x3e49ae1c	0.19695324
123	0xbe92e03c	-0.28686702
124	0x3d377365	0.044787783
125	0xbf3136e2	-0.6922437
126	0x3f0e529b	0.55594796
127	0xbeaf2419	-0.34207228
128	0xbd17ff9c	-0.037109002
129	0x3f318d56	0.69356287
130	0xbf65ca34	-0.8976166
131	0x3eb2ba43	0.3490773
132	0x3f3a71e7	0.7283005
133	0xbecf1e40	-0.40452766
134	0xbf075031	-0.5285674
135	0x3eaf5591	0.3424497
136	0xbeed8c42	-0.4639607
137	0xbef4ad6b	-0.47788557
138	0x3f21a746	0.63145864
139	0x3f148041	0.580082
140	0x3efa9e5d	0.48948947
141	0x3f2382fe	0.63871753
142	0xbeed6dc3	-0.46372804
143	0x3f43affa	0.76440394
144	0xbedc6e2f	-0.43052813
145	0x3d54e4ab	0.051975887
146	0xbf35253b	-0.70759934
147	0x3e04f2c4	0.12983233
148	0xbf55ed45	-0.8356517
149	0x3e416216	0.18885073
150	0x3ee1c447	0.4409506
151	0xbce59db9	-0.02802931
152	0xbe3a21df	-0.18176983
153	0x3f43119d	0.7619875
154	0x3f1d32f9	0.61405903
155	0xbf086a7e	-0.53287494
156	0x3db1e503	0.08686259
157	0x3e0cae69	0.13738407
158	0xbf29f062	-0.6638242
159	0xbf2b9200	-0.67019653
160	0x3f080de3	0.5314619
161	0x3e525b72	0.20542696
162	0xbf23c9bc	-0.639797
163	0xbf52fb5d	-0.824148
164	0x3f198f37	0.59984154
165	0x3f35a690	0.7095728
166	0xbf0b122c	-0.54324603
167	0x3e34e41f	0.17665146
168	0xbd9253b8	-0.07144874
169	0xbf300f4e	-0.68773353
170	0x3f4968aa	0.7867533
171	0xbeb9fc94	-0.36325514
172	0xbe7ec9ce	-0.2488167
173	0xbeec16ea	-0.46111232
174	0xbf5f9b59	-0.87346417
175	0xbd75e48e	-0.06003242
176	0x3f0e17c1	0.55504996
177	0x3e9e0544	0.30863392
178	0x3e60d86f	0.21957563
179	0xbeaa8c04	-0.33309948
180	0xbf612e1a	-0.8796097
181	0x3f2b656b	0.66951627
182	0x3f2a14b4	0.6643784
183	0x3d082798	0.033240885
184	0xbed90dd8	-0.42393374
185	0x3eac5c97	0.3366439
186	0xbe4de91d	-0.20108457
187	0xbe899af9	-0.26876047
188	0xbf963a5f	-1.1736563
189	0xbe7dac4b	-0.24772756
190	0x3f330242	0.6992532
191	0x3f5bed90	0.85909367
192	0xbf1f3209	-0.6218572
193	0x3ebbc984	0.36677182
194	0x3e8b46d1	0.27202466
195	0x3f3a55c9	0.7278715
196	0x3f01e56f	0.5074071
197	0xbe334395	-0.17506249
198	0xbe0a042a	-0.13478151
199	0xbec0d5e2	-0.3766318
200	0xbe2991f5	-0.16559584
201	0xbd51f877	-0.051262345
202	0x3de286d1	0.110608704
203	0xbf369272	-0.7131721
204	0x3d067e20	0.032835126
205	0xbebad992	-0.36494118
206	0x3f013456	0.50470483
207	0xbeb94d4e	-0.3619179
208	0x3ea365d3	0.31913623
209	0x3f73fc4c	0.9530685
210	0xbf46e50e	-0.7769326
211	0x3ea768e8	0.32697225
212	0x3d925ad3	0.071462296
213	0x3f0ba4ae	0.54548156
214	0x3ec51050	0.38489008
215	0xbf6d9591	-0.92806345
216	0xbee96061	-0.45581344
217	0xbe390522	-0.18068364
218	0x3d093e5e	0.033506744
219	0x3d9b2d67	0.07577019
220	0x3ec36107	0.38159963
221	0xbece91a0	-0.40345478
222	0xbf0d24d7	-0.5513434
223	0x3e98d54b	0.2985023
224	0xbe94ae6a	-0.29039317
225	0xbdca584d	-0.09880123
226	0xbf178a67	-0.5919556
227	0x3ea229ce	0.3167252
228	0xbec46660	-0.38359356
229	0xbdad5888	-0.084641516
230	0x3fb4adb4	1.411551
231	0xbee44235	-0.44581762
232	0xbf1f2a97	-0.6217436
233	0xbdfe3056	-0.12411563
234	0x3e89b637	0.2689683
235	0x3f003692	0.5008327
236	0xbdf86282	-0.12128164
237	0x3e0ee5f3	0.13954906
238	0x3d95c8d2	0.07313694
239	0xbcb0f48a	-0.02160098
240	0x3eac2186	0.33619326
241	0xbf3dd295	-0.7414945
242	0xbe8093ea	-0.2511285
243	0xbf39c10f	-0.7256021
244	0x3e8c6ed6	0.2742831
245	0xbeff0485	-0.49808136
246	0x3f429367	0.7600617
247	0xbf099a40	-0.5375099
248	0x3f1fa3b2	0.62359154
249	0xbd08f081	-0.033432487
250	0xbf5c81f6	-0.86135805
251	0xbe1f39f4	-0.15549451
252	0x3f04b216	0.5183424
253	0xbc90be6e	-0.017668929
254	0xbed21d33	-0.41037902
255	0x3ebff915	0.37494722

Decoder.lstm.bias_ih_l0 f4 [80]
0	0xbdf19704	-0.11796382
1	0x3f02df76	0.51122224
2	0xbea52a62	-0.32258898
3	0xbf03762d	-0.51352197
4	0xbedb517e	-0.4283561
5	0x3f27cc29	0.655459
6	0x3e129190	0.1431334
7	0xbf13e6f3	-0.57774276
8	0xbc0b3d60	-0.00849852
9	0xbe552f66	-0.20818862
10	0xbeb84cec	-0.35996187
11	0xbeee6208	-0.46559167
12	0xbb6bacc0	-0.0035961121
13	0xbef88276	-0.48537034
14	0xbf22b37d	-0.6355513
15	0xbf5161a3	-0.81789607
16	0x3d884318	0.06653422
17	0xbf0f8ee8	-0.5607743
18	0x3ee631a9	0.44959763
19	0x3e6a31dc	0.22870582
20	0xbf1a3e44	-0.6025126
21	0xbf2abb65	-0.6669219
22	0xbf10d038	-0.56567717
23	0xbf833ae7	-1.025235
24	0xbf35b1da	-0.70974505
25	0x3e13d2ab	0.14435832
26	0x3d8ee680	0.06977558
27	0xbf48524a	-0.78250563
28	0xbe960d83	-0.29307184
29	0xbf716306	-0.9429172
30	0xbf0001f9	-0.5000301
31	0xbf3a2762	-0.72716343
32	0xbe315218	-0.17316473
33	0xbf0b1d89	-0.5434194
34	0xbf444401	-0.76666266
35	0xbf2b5a24	-0.6693442
36	0xbe189fe1	-0.14904739
37	0xbf279676	-0.6546396
38	0xbecf5324	-0.4049312
39	0x3eb85d24	0.3600856
40	0x3e9104ba	0.2832392
41	0xbe233505	-0.15938194
42	0xbe528239	-0.20557489
43	0xbd8939b3	-0.067004584
44	0xbde8565e	-0.11344598
45	0xbea4f148	-0.32215333
46	0x3f0399f2	0.51406777
47	0xbe0d5b77	-0.13804422
48	0x3f13571f	0.5755481
49	0xbe0ecdc2	-0.13945678
50	0xbf1fa9fd	-0.62368757
51	0xbee856a3	-0.453786
52	0x3eb3efdf	0.35143945
53	0x3e973f3e	0.29540437
54	0x3e3ca963	0.18423991
55	0xbe13d72c	-0.1443755
56	0xbeb0195f	-0.34394357
57	0xbeae6935	-0.34064642
58	0xbe6ac370	-0.22926116
59	0x3eece990	0.46271944
60	0xbf4f7083	-0.81031054
61	0xbd5e7240	-0.054308176
62	0xbe91a698	-0.28447413
63	0xbf334899	-0.7003265
64	0xbf252331	-0.6450682
65	0x3f32f356	0.6990255
66	0x3e6e19cb	0.23252027
67	0xbf27fa2d	-0.6561611
68	0xbe7ed4f3	-0.24885921
69	0xbdd08abc	-0.101827115
70	0xbf06aa7f	-0.52603906
71	0xbef2740f	-0.4735417
72	0xbda20a3c	-0.07912108
73	0xbf3f1b1d	-0.74650747
74	0xbf44cd7d	-0.7687605
75	0xbf01874f	-0.5059709
76	0x3ef096b2	0.4698997
77	0xbeaa3f17	-0.3325126
78	0x3e29cc99	0.16581954
79	0x3dc0bddf	0.09411215
