dylan/models/model: 2023-05-23 14:34.pth (torch, 54087 bytes, 10 tensors)

lstm1.weight_ih_l0 f4 [200, 6]
00000000: 8b4f fc3c 825a 483d 43d4 24be bc94 0dbe
00000010: 48dd 493e 92a7 d73d e281 47be 1ea1 4abe
00000020: d6d0 213e 713f 103e 25fb 3c3c a42a 2fbc
00000030: dccd e8bd 434a c2bd 07e8 b33d 058e 513c
00000040: 44cf 48be cb27 a7be 78c5 123e e941 afbe
00000050: 80b2 273d 9abe 1e3e 8bc7 4c3e 2c40 febd
00000060: 7da8 a9bb ab1e 98bc 4837 a13c 2875 abbd
00000070: a652 c4bd d5d1 e13b ff9d 81be 7e16 debd
00000080: 1737 dd3d 33ec 4ebd 9234 fbbd b91a 4fbd
00000090: 37e6 433e 9980 063d 45ac 663e d2cb e93e
000000a0: 05db e73e 1e44 e0bd 9e79 64be 956c 83be
000000b0: 89f2 8e3e 8bc7 5d3e 636d 81be c1d8 863e
000000c0: 027f 0a3e c78e 823d 38c9 c33c 77de 603b
000000d0: d702 8a3d 64ec 04be 0c38 1ebe 92f0 09be
000000e0: 8efc 93bd 003b 823d 5c4f a33c 1c3b 873e
000000f0: 17bf d4bd 2cd0 0c3d 7842 403e 3c39 01bd
00000100: ce8a 533d 5c2d b9bd d4ea 30be 797a 1ebe
00000110: 927b aebd e118 68be e46d b2bd 967f 193e
00000120: 5325 8bbd 2663 8dbe ca53 73be 682b d73c
00000130: f9e7 993d 31da 093e 381a 08be 58ef 453d
00000140: ba12 44bb b99e 0a3e 9e13 893d a251 58be
00000150: 298e 173d 2878 813d 9376 513e 0db1 353e
00000160: bca8 a33e 90b5 95be 8ab1 163d a56d 17be
00000170: 087d 1d3e aea4 1d3d b580 803e 2010 9ebe
00000180: e5c7 cf3d db6f 3b3e 19b6 1f3e a54f b8bd
00000190: d3e4 953c d051 debd 8d9a dabd 045d 1abe
000001a0: a7ae 5a3d c360 27be 90bb f63d 2204 913d
000001b0: 002c c1bc c06d 39be 1406 e0bc 791f 79be
000001c0: a753 bf3d 2afa 8f3d 6e05 8f3e c41a 613e
000001d0: f28e 8ebd 3449 12be b8fb b93e 20be 65bc
000001e0: 46d6 843e c704 023d f080 b83e 7de4 013c
000001f0: 5ef0 8b3e 3fe3 aabd 849d 20be d091 80be
00000200: e3c1 e33d 3a4a a3bc 078c debd 8c20 82bd
00000210: da2f 22be c409 17be 973f 133e 24fe e23c
00000220: 64c3 3b3e 460c 15be a0a7 783d b3b6 88be
00000230: ee0e ba3d 49cc 1a3e 56a2 213e aab0 66be
00000240: 8e57 c53c c85f d4bd c0ae f1bc 2b15 183c
00000250: 3c79 d43e d25e 7d3e 7b33 2ebe 44f7 693d
00000260: f64a 0b3d 84f8 fb3e 5438 2d3f cd25 cebd
00000270: e801 0fbe 3637 513d 2176 123e 0a50 793e
00000280: a7fd 943d 7c20 1abd ffe4 d03d b3d8 31bd
00000290: 8ba1 373d 502a ea3d b83b 6c3d d480 febd
000002a0: 8541 5b3d deed 453d 133e 493c 4a4f acbd
000002b0: 0d07 14bd afdc 94bd bf77 bf3e e2de a53d
000002c0: 051b 02be c64e c93e ccd6 6e3e 85a3 e53e
000002d0: 6d42 32be b7cf 9ebe 7d64 633d e0cb 953d
000002e0: 7f32 aa3e 5c06 dc3d 1df4 893e 1289 9cbb
000002f0: 5f84 03bd 398b 283d 93c8 64bd 9df2 afbe
00000300: f798 3ebe a0fb 36be 7d39 05be 873c 933e
00000310: d401 87be 2609 f9bd 3dd1 d7bd e7c4 48be
00000320: e1ac a03d 0338 2ebe 06cc 953d a7b9 85be
00000330: b8f4 293e cf19 4ebd f2ab 9c3e 1044 2fbd
00000340: df8a 633e aa0f 63be 9a5b 903c 0c62 8ebb
00000350: dbb2 3ebe 8dac 73be 6ed4 073e 6963 093d
00000360: 3b15 833e eb8b 963e 8f45 8e3d ca8d 85be
00000370: a034 673e 989c 20be 8dd3 d6bc 2ca8 a7bd
00000380: cd0a ba3d 4f2f 163e da84 623e e7d2 90bd
00000390: e449 8fbe 3c9a ccbd 6afd 2ebc 26da c03d
000003a0: a1a5 37bd 3e3a be3d 07d7 2fbe f594 8ebe
000003b0: e630 483d 34de 923e 079e 69be c053 5e3e
000003c0: 7f92 dcbe 50ee 9cbe 8f64 8d3d dabc fbbd
000003d0: c4f9 b23e 5605 84be 9e11 afbd e4d9 32bc
000003e0: 5d72 513e 329d b0bd 3c0a fcbd 7ef0 703e
000003f0: 7397 4abe 348a b5be 8bd5 533e e946 913e
0.030799648 0.04891444 -0.16096596 -0.13826269 0.19713318 0.105300084 -0.1948314 -0.19788024
0.15802321 0.14086701 0.011534487 -0.010691319 -0.113673896 -0.094868205 0.0878449 0.012790208
-0.19610316 -0.32647547 0.14333141 -0.34229973 0.040941715 0.15502396 0.19997995 -0.124145836
-0.005177556 -0.018569311 0.01967968 -0.08371955 -0.095860764 0.006891469 -0.25315854 -0.10844134
0.10801523 -0.050518226 -0.12265886 -0.050562594 0.19130789 0.032837484 0.22526653 0.45663315
0.45284286 -0.10950492 -0.22312018 -0.2566878 0.27919415 0.21658151 -0.25278768 0.26337245
0.13525012 0.06374889 0.02389966 0.0034312287 0.06738823 -0.12980801 -0.15451068 -0.13470677
-0.07225905 0.063589096 0.019935302 0.26412284 -0.1038801 0.034378216 0.18775356 -0.031548724
0.051646046 -0.09041855 -0.1727708 -0.15476407 -0.08519663 -0.2266574 -0.08712366 0.14990076
-0.067942284 -0.27614707 -0.23762432 0.026265815 0.075149484 0.1346214 -0.13291252 0.04832396
-0.0029918388 0.1353711 0.06693195 -0.2112489 0.03700081 0.06321746 0.20455389 0.17743321
0.31964672 -0.29240084 0.03679041 -0.1478792 0.15379727 0.03848713 0.25098196 -0.30871677
0.10145549 0.18304388 0.15596808 -0.08999566 0.018297588 -0.10855448 -0.106740095 -0.15074545
0.053389218 -0.16345505 0.120474935 0.070808664 -0.023580551 -0.18108273 -0.027346648 -0.24328412
0.09342127 0.07030137 0.2793383 0.21982867 -0.069608584 -0.14285737 0.3632486 -0.01402238
0.25944728 0.031742837 0.36035872 0.007928011 0.27331823 -0.08344125 -0.15685087 -0.25111246
0.11120965 -0.019932855 -0.10866552 -0.06353864 -0.15838566 -0.14749819 0.14379726 0.027709074
0.18336254 -0.14555463 0.060706735 -0.26701888 0.09084879 0.15116991 0.15784582 -0.2252833
0.0240896 -0.10369831 -0.029502273 0.009282391 0.41498744 0.24743202 -0.17011826 0.057120577
0.034007035 0.4921304 0.67664075 -0.10065804 -0.13965571 0.051078044 0.14302875 0.24346939
0.07274943 -0.037628636 0.101999275 -0.04341955 0.044831794 0.11433852 0.05767414 -0.12426916
0.05352928 0.04832255 0.012282866 -0.08413561 -0.036139537 -0.072686546 0.37396047 0.08099152
-0.1270562 0.39317912 0.23324126 0.44851318 -0.17408152 -0.3101785 0.055515755 0.07314277
0.3324165 0.107434005 0.26944056 -0.0047770822 -0.03210866 0.041148398 -0.055855345 -0.34364787
-0.18613039 -0.17869425 -0.13010211 0.28757116 -0.26368582 -0.12159948 -0.10537956 -0.19606362
0.07845474 -0.17013554 0.07314305 -0.26118204 0.16597259 -0.05031758 0.30599934 -0.04278952
0.22220944 -0.22173944 0.017621804 -0.004345184 -0.18622915 -0.23796292 0.13264629 0.03354207
0.25602135 0.29403624 0.06946861 -0.2608474 0.22578669 -0.15684736 -0.026223922 -0.08186373
0.09084091 0.14666484 0.22120991 -0.070714764 -0.27986062 -0.09990355 -0.010680536 0.094166085
-0.04483569 0.092884526 -0.1717187 -0.2784802 0.04887476 0.28685153 -0.22814189 0.21711636
-0.43080518 -0.30650568 0.06903946 -0.1229188 0.3495618 -0.2578532 -0.08548282 -0.010916207
0.20453782 -0.086237326 -0.123066396 0.2352924 -0.19784336 -0.35457003 0.20686929 0.28374413

lstm1.weight_hh_l0 f4 [200, 50]
00000000: c90d ecbb dd76 bbbb dac2 053b 55b0 1dbd
00000010: 1df7 86bd 001e b6bb 1aec c0bc 7f2d 063e
00000020: 4ad7 83bc 964d fe3d 83b6 77be 0656 b43e
00000030: f43a fd3d bf6a c23d d6a7 773d ee95 18bd
00000040: d6d0 e2bb 1f46 973c 2881 7fbe b759 ecbd
00000050: bf55 4abe d389 883e 1342 863d 4874 4fbe
00000060: 4336 bcbd b0bc 42bd 16f5 253e c2dd d0bd
00000070: 5491 bc3c 5813 333d dd0d a7be fb50 31be
00000080: a0ff 95bd 728f 06be 7bc2 b8bd 20bc c7bd
00000090: 65de e33c 5b2e a2bc 2b61 f63d e245 9cbe
000000a0: 2caa edbd 96f1 89bd fed8 80bd 33d3 8fbc
000000b0: 817c 85be 1d36 9e3c adc5 26be e501 8f3e
000000c0: 794c 273c 4866 cb3d 9983 09be 8adb e83d
000000d0: 5459 ab3d 059e b7bd bb4a 11bd 4f7b bcbd
000000e0: c11c 0e3d 45f0 983c 08a6 413e 886b 99bd
000000f0: eed2 133d c76f d7bd d34a 75ba 0065 28bd
00000100: 9a57 173e 8860 263e c4ee b8bd d516 253d
00000110: 5fe6 683d 8bbc 00be 7f11 1cbe 32b8 e93d
00000120: add6 69bd 444a ebbd 6886 0f3d 9dab 9d3d
00000130: 4ead 12be f3eb 24be 7242 4fbd 8773 843e
00000140: 9d7c 2abd 4a03 47be a07a 4d3d 5101 c3bc
00000150: d0bc 0d3e 69f7 2fbe dd2f ca3d 3edf 63be
00000160: 7e6b 193e a729 60bd 2cbe 2ebd f956 943b
00000170: dcd1 b1bd be1a 183d 248b 88bd 5e4c 26bc
00000180: fadf a7bd 056d 45bb 73a5 023e 81c3 f1bd
00000190: 11d3 20be 6502 dc3d 9c49 94bc 68aa 24be
000001a0: 7290 903d 0d57 4e3e d5dc 903e 0a88 8d3e
000001b0: 59ed c4bd 18db db3d ea12 5a3d b401 863e
000001c0: a54f 883d 276d 293d cba5 343d 5751 6a3d
000001d0: 2d9d 36be 9e1a 64be 364e f8bd b46e 85be
000001e0: 4f2d d8bd 5a8e 483e 461f 12be 03fc 55be
000001f0: 3ee3 4c3e 0bc9 043e 570c 1dbe e654 69bd
00000200: e401 8d3a 1879 d53e 1b41 8dbe 3d7d 82bd
00000210: 3596 073e 2bb5 57be d42b 783d 3a7a 66bd
00000220: 4857 7c3c 9bff cabd 5c6b 9c3d 8549 99be
00000230: 3442 a7bd f16c b5bd 9aa7 2bbe a60f 7a3e
00000240: 2a86 79be 7c2d 29bd 41f8 dcbd e882 003e
00000250: e2ec d43d 7477 47be 1ff4 cabe 02c4 d23d
00000260: 1be4 093d 82c3 0dbe 0ee2 773e 9773 943d
00000270: bc4b 1e3d 8fe5 813e 706d 4e3d 3a2d ba3e
00000280: 17d6 e8bd 9f81 8e3e eb6a a73d e97c febd
00000290: 1025 6b3e b2da 31bd bcad 02be f1b2 8bbe
000002a0: da7b 8fbd eef3 d3be 2492 03be c973 913e
000002b0: 6dad 0d3b 0822 f0bd 39e4 223e 76de 1d3e
000002c0: 89f2 14be 3571 5fbe f7c6 f9bd 6e7b 773e
000002d0: b8e1 38be 736a 88bd 21c5 843e 3553 10be
000002e0: bcc3 c7bd c6d0 3fbe ec78 733e 40a3 89be
000002f0: e2c7 953d 79e3 e8bd 808b 7dbd 5b1b 72be
00000300: 2ea3 93be ffa2 223e f2ca 4ebe 9501 b1be
00000310: 5d84 26be 85cb 783e be9e d43d df1d a5be
00000320: 7aa9 0d3d 086a 783e 78c3 4a3e fca3 dbbd
00000330: 9d0e cfbd c655 b7bd d182 3f3e 5c03 3f3e
00000340: 64b7 383e 3130 ff3d dcf0 003e fb3b 293d
00000350: dab6 3d3d f91a 21be ea3d 0d3e 4d81 1f3e
00000360: ccca f0bc 0e65 d4bd 9426 ff3c 0bb5 f4bd
00000370: d71e a4bd 9889 d53d 7eb3 3cbd 0276 6bbe
00000380: 1835 82bd bc9c 443d 8368 bebd 1fba b43d
00000390: 89e6 153d 5498 293e 576b 37be 5979 83be
000003a0: ac92 893d 26ea c4bc 54a5 bb3d 95a1 a73d
000003b0: 5009 643e ccbb 9b3c 0364 ff3d cc3f 41be
000003c0: 4615 b43c c58c afbd 9bf4 53be d79a 1d3e
000003d0: 8345 2bbe ac0b 3cbd a92e 15be e88a 863e
000003e0: fbae e8bc 3b7e 82bd 6f24 13be b8ed 9bbd
000003f0: 79f7 2bbc d100 5ebe 79c0 d83d a386 ab3d
-0.0072037918 -0.0057209567 0.002041033 -0.03849824 -0.06590102 -0.0055577755 -0.023550082 0.13103293
-0.016093869 0.12417142 -0.24190716 0.3522188 0.1236476 0.094930165 0.060462795 -0.03725236
-0.006921868 0.018466054 -0.24951613 -0.11540549 -0.19759272 0.26667652 0.065555714 -0.20259202
-0.09190037 -0.047543228 0.16206774 -0.10198547 0.023018517 0.04371962 -0.32627764 -0.17316048
-0.07324147 -0.13140658 -0.09021469 -0.09752679 0.027816007 -0.019797495 0.12030252 -0.30522066
-0.11604723 -0.06735532 -0.06291388 -0.017556762 -0.2607155 0.019312913 -0.16286345 0.27931133
0.010211104 0.09931618 -0.13429107 0.11369999 0.08366647 -0.08965687 -0.03547166 -0.09203207
0.03469539 0.018669257 0.18910992 -0.07491213 0.03608983 -0.10519367 -0.0009357158 -0.041111946
0.14779511 0.16247761 -0.09029916 0.040304977 0.056860324 -0.12571923 -0.15241049 0.114120856
-0.057089496 -0.114887744 0.03504029 0.07698748 -0.14323923 -0.16105632 -0.050600477 0.2586939
-0.041622747 -0.19434848 0.050165772 -0.023804339 0.13841558 -0.17184223 0.098724104 -0.22253129
0.14982411 -0.054727223 -0.04266183 0.0045269695 -0.086826056 0.03713488 -0.06667164 -0.010150043
-0.08197017 -0.0030124795 0.12758426 -0.118048675 -0.15705515 0.10742644 -0.018101506 -0.1608063
0.07058801 0.20150395 0.2829348 0.27642852 -0.09615583 0.10735148 0.053240694 0.26173174
0.06655816 0.04136386 0.044103425 0.057206478 -0.17833395 -0.22275779 -0.121242926 -0.26061022
-0.10555517 0.19585553 -0.14269742 -0.20896916 0.20008561 0.12967317 -0.15336739 -0.05696573
0.001075801 0.4169395 -0.27588734 -0.063715436 0.13240893 -0.21065204 0.060588673 -0.056268908
0.015401669 -0.09912034 0.07637665 -0.29938903 -0.08166924 -0.088586695 -0.16763154 0.24420032
-0.24367586 -0.041303143 -0.10789538 0.12549937 0.10396744 -0.19479162 -0.39639375 0.10291292
0.033664804 -0.13844112 0.24207327 0.072486095 0.038646445 0.25370452 0.050397336 0.3636263
-0.113689594 0.27833268 0.0817469 -0.124261685 0.22963357 -0.043421455 -0.12761587 -0.2728496
-0.07006045 -0.4139704 -0.12848717 0.2840865 0.0021618262 -0.11725241 0.15907373 0.15416893
-0.14545645 -0.21820529 -0.12196153 0.24168178 -0.18054855 -0.066609286 0.25931647 -0.14094241
-0.0975413 -0.18731984 0.23776597 -0.26882362 0.07313515 -0.11371512 -0.061900616 -0.23643248
-0.28835434 0.1588249 -0.20194605 -0.3457152 -0.1626143 0.24296387 0.1038184 -0.32249352
0.034585454 0.24259198 0.19801128 -0.10724637 -0.10110209 -0.08951907 0.18702246 0.18653625
0.18038708 0.12460364 0.1259188 0.041316967 0.04631696 -0.15732946 0.1379315 0.15576668
-0.029393576 -0.10370837 0.031146325 -0.11948594 -0.08013695 0.104266346 -0.046069615 -0.22994235
-0.06357783 0.048001036 -0.09297278 0.08824562 0.03659681 0.16562015 -0.1791204 -0.25678518
0.067174286 -0.024037432 0.09162393 0.08185116 0.22269177 0.019010447 0.124702476 -0.18871993
0.0219828 -0.085717715 -0.20698778 0.15391098 -0.16725735 -0.04590957 -0.1456858 0.26277852
-0.02840375 -0.06371733 -0.14369367 -0.07613701 -0.010496014 -0.21679999 0.10583586 0.08375289

lstm1.bias_ih_l0 f4 [200]
00000000: 6a87 ba3d fabe 5e3e 7314 af3e 3446 f43e
00000010: 720d 603e 2a2c 143e 86fa 153e 3302 9f3e
00000020: 3378 713e 39e3 983e 468a 803e 6750 c03e
00000030: b275 943e d72a 433d 0210 c53e e45d 883e
00000040: a2c8 b33b 84cd c03d dae4 913e 1d35 fa3e
00000050: 7695 983e e15c a43e 42e3 c73e be6d 613e
00000060: 5b8c a23e 5dbb 543e 8dd0 ca3d dbb2 6b3e
00000070: 9d25 953e aa06 2f3e 6237 a33e 4e20 3c3e
00000080: 6e23 8e3e 674b 8e3e f1a7 513e ced2 833e
00000090: cfae 3c3e d9fb 013e 612a 8f3e 88a5 863e
000000a0: c50d b03e ed27 843e 8587 9a3e d28a b13e
000000b0: 8638 a23e 7829 5c3e 0b99 813e a892 b13e
000000c0: 8c2f fb3d 0610 b13e d31c 3cbd fe90 a4bb
000000d0: d299 d6bc 6401 37bd 1bad a9bd 24b6 4fbd
000000e0: e81e 17be 77c2 1c3e 4f33 4b3d ce26 303c
000000f0: 9abd 0b3d 1ed0 ccbd 98b7 acbd 5c21 d63d
00000100: 4b8a 703d 2e1c 723c ee1d 903c b533 073e
00000110: 83cd 203e 7387 0f3e ee30 973c caa1 543c
00000120: 4e67 953d 64d0 873d 3e45 1fbe 34c7 52bd
00000130: bd74 05bd b3a8 363d 5058 213c 69ea e3bd
00000140: 0b49 123d 018f aebc 81fa 8a3d e654 46bd
00000150: 24d4 64be 22f1 b2bd ae38 f4bd 467f 163e
00000160: 86a7 583d c736 71bd db4f 0fbd 73a7 8a3c
00000170: b8b8 173d a750 0f3e 0453 b6bc ec4e 5f3d
00000180: b374 9bbd 9979 f93d f9f1 313e 2ef0 b03c
00000190: 942d 7fbe 9d43 9abd f259 4a3e 496c a6bc
000001a0: 4ac1 5c3e 50b9 ec3d a80e 693c 4d96 403e
000001b0: dfb5 f0bc f32e ed3d f757 dc3c fb4b 843d
000001c0: 54b0 dabc a28f 063b 4517 cf3d e86f 753e
000001d0: 9da6 72bb 3679 0fbd b986 193d b695 b6be
000001e0: 6c50 e33d 164d de3d a524 8dbc 308e 4abe
000001f0: e0e0 a73d e646 c8bd 6755 eebd caa0 e3bd
00000200: a7a4 c63d dfa5 863e 0bf1 5abe 866b 99be
00000210: a8b0 1d3e cb82 79bd 9bb4 d13c c965 67be
00000220: 80ad 703e 2376 1dbe 8383 de3b e6f7 79be
00000230: f9f2 1cbe 2066 20be 4a42 4abe bd4d 633b
00000240: 9453 31be 1136 11bd d9ba 25be b955 963e
00000250: 5a50 313e 662f cdbd 6a36 8d3e ac8e 8a3e
00000260: 08e9 8b3e 52b3 b43e ad85 9f3e 5cda 663e
00000270: 76bf 133e db03 8e3e 65ca 903e 96af 2e3e
00000280: 485c 8e3e 475b 6d3d 522c 373e 05c5 513e
00000290: 5526 a33e 7827 533e de96 903d 8e12 1b3e
000002a0: 0705 b03e 58eb 843e 78b0 6c3e dc37 913e
000002b0: 7ff9 8f3e b397 503e beb0 c73e 61b7 673e
000002c0: 0d2b fa3d 61fc 603e cf1c a03e a7b9 893d
000002d0: 6563 cb3e e0a6 933e 9a4e 2f3e 66bd d83e
000002e0: 518b a33e ebbf 9f3e aa34 ca3d 6b94 9f3e
000002f0: eebe 2f3e 49a7 453e 3f88 393e 1d06 c43e
00000300: 7609 ae3e e664 ae3e c1e7 353e f668 bf3d
00000310: 10dc f43d 32f8 5a3e 0e62 ae3d 6040 863e
0.091078594 0.2175254 0.3419529 0.4770981 0.21880129 0.14469972 0.14646348 0.31056365
0.23581009 0.29860857 0.25105494 0.37561342 0.28996044 0.047648277 0.38488775 0.26634133
0.005486564 0.09414199 0.28494912 0.48868647 0.2980153 0.3210211 0.3904057 0.2201452
0.31747708 0.20774598 0.09903059 0.23017447 0.2913026 0.17092386 0.3187819 0.18371698
0.27761406 0.27791902 0.20474221 0.2574677 0.18426059 0.12693729 0.2796202 0.26298165
0.34385505 0.2581171 0.30181518 0.34676224 0.3168375 0.21500194 0.25312075 0.34682202
0.12264928 0.34582537 -0.045925926 -0.005022167 -0.026196394 -0.04467906 -0.082849704 -0.050710812
-0.14757884 0.15308557 0.04960948 0.010751439 0.034116365 -0.10000633 -0.08433455 0.104555815
0.058725636 0.014777226 0.017592397 0.13203318 0.15703396 0.14016514 0.018455949 0.012978027
0.072950944 0.06631544 -0.15553758 -0.051459506 -0.032582033 0.044594478 0.0098477155 -0.111286946
0.03571419 -0.021308424 0.06786061 -0.04842081 -0.2234655 -0.08737399 -0.11924873 0.14696988
0.052894138 -0.05889013 -0.034988265 0.01692555 0.037041396 0.1399561 -0.022256382 0.054518625
-0.07590618 0.12181396 0.17377461 0.021598902 -0.2491973 -0.075324275 0.19760874 -0.020315306
0.21558109 0.11558783 0.014224686 0.18807335 -0.029383598 0.115812205 0.026897414 0.064598046
-0.026695408 0.002053239 0.1011186 0.2396847 -0.0037025579 -0.035027705 0.037481997 -0.35661095
0.11099324 0.10854547 -0.017229388 -0.19780803 0.081971884 -0.09779148 -0.11637383 -0.111146525
0.09699374 0.26298425 -0.21381013 -0.29964846 0.1539942 -0.06091575 0.025598815 -0.22597422
0.23503685 -0.15377097 0.0067905798 -0.24410972 -0.15327062 -0.15663958 -0.1975185 0.0034683787
-0.17317039 -0.035451952 -0.16184558 0.29362276 0.17315808 -0.10018806 0.27580577 0.27061975
0.27326226 0.3529306 0.31156674 0.22544235 0.14428505 0.27737316 0.28279415 0.17059168
0.2780478 0.057948377 0.17888 0.20485313 0.31865183 0.20620525 0.07060026 0.15143797
0.34378836 0.25960803 0.23114192 0.2836293 0.28120038 0.20370369 0.3900203 0.22628547
0.122152425 0.21971275 0.3127198 0.067248635 0.3972427 0.28838253 0.17119828 0.42332
0.31942227 0.3120111 0.09873326 0.3116792 0.17162678 0.19302095 0.1811838 0.38285914
0.33991593 0.34061354 0.17764188 0.093461916 0.11956036 0.21383741 0.08514796 0.2622099

lstm1.bias_hh_l0 f4 [200]
00000000: 2a3a ac3d eec1 623e 4476 753e 0494 f93e
00000010: ed58 a23e f00e 5d3e 4bc6 0b3e 1b43 073e
00000020: 349c 353d 22c2 023e dd73 8d3e 5dc6 b43e
00000030: 75b0 343e 8c04 953e 94a4 213e ca8e d93e
00000040: d081 323e 0a59 313c 7aa7 3e3e ff55 0c3f
00000050: b96a 893e 1f92 243e 9f07 8e3e 118f 193e
00000060: 2ce9 a23e 6edc 5d3e 3e6d 0a3e 4d22 9c3d
00000070: 3be2 9c3e 61dd 773e 9859 e83e e5d4 e23d
00000080: f522 f13d bfcd 3b3e c05d bc3e bf44 983e
00000090: 4314 033e a753 ab3e 6834 463e 9706 7e3e
000000a0: e735 173e 7da2 b83e a554 7e3e 4adb b23d
000000b0: d092 943e c365 013e c83d ac3d 7725 c33e
000000c0: 7794 6c3e b948 8b3e 5fe4 cc3c e0ba afbd
000000d0: dabb fb3c 3b7b 5dbe 0479 1e3e 5c80 74bd
000000e0: c3cd d8bd 23f5 d9bd 880b 883d 246d 06be
000000f0: dea8 da3c d379 d13d 18fb 50bd 68c3 eebd
00000100: c2f3 203e 667b 03be f938 a1bd 9958 0a3e
00000110: d36c 213e 8f7b d53d 003d a4bc f3a6 eb3c
00000120: 4b80 ab3d 0e0d 21bd 2925 22bd 1b33 e73d
00000130: 9745 cc3d 36bf d73c 7166 2ebe 4419 cebd
00000140: ab99 fabc 8f8e 02bd 2c22 163e 668c b9bc
00000150: 75b0 3ebe 0ccf c3bd 0446 d43d ccdc bd3c
00000160: e359 3f3d 43ef 3f3d 8cec 2cbc 38be af3d
00000170: d4e2 233d 7def 0dbe 767a b53d 3a96 74bd
00000180: 9336 a7bd ceb6 b0b9 af7b 1a3e 9f42 1a3e
00000190: 6090 86be 723b 073e 349f b03d 956e 56bd
000001a0: 8bdc b1bc ea8c 1e3e 49c2 e0bd 2902 0c3e
000001b0: 68fb e3bc 0036 5b3e a4dc 28bd 7366 953e
000001c0: c222 273d 8d70 b6bd aefa 7c3d cba3 12bd
000001d0: 6c34 44be 0390 0abe 9126 57be 9cbd 2ebe
000001e0: 2c0b b23b 78f2 dd3d 31b6 c43c cc61 8cbe
000001f0: 942d 30bd f965 58bd 149d 47bd 7622 1b3d
00000200: 5af3 31bd e621 283e d3a8 40be 778c 07be
00000210: 345f 093e bf0b 83bd 1875 3dbe 4a53 d7bd
00000220: 7ef5 533e 9824 b3bd 5dc3 003e 56ec 63be
00000230: 2e7f 5fbe 6bbd 4ebe 3a21 01be 868c 163e
00000240: 25af 8dbe b776 82be 19bc 81be 7b73 b23e
00000250: ac1c 843e 1fdd a0be 2045 9f3e 697d 6a3e
00000260: b66c 333e dd99 c43e 90e8 a73e bd7d 073e
00000270: a984 8b3e 74ef b83e e914 f23d 22da a53e
00000280: 586b 9a3e 3221 7a3e 4470 cf3e a3c9 183e
00000290: 1185 343e efde d43e 8817 a13d de7c 103c
000002a0: f120 553e eae3 863e aa8a 9b3e 74ce 413e
000002b0: 7ad9 683e b6a2 aa3d 3b12 8a3e f27a a83e
000002c0: 0518 dabb 4ec7 993e 43b9 863e fbe7 483e
000002d0: a6f2 dd3e 1eca 4b3e 29a0 f43d ca84 aa3e
000002e0: 9fb9 933e 0b06 333e d9e2 993d 3f99 503e
000002f0: 78c5 983e 5ef5 323e 8fb8 073e fcf5 643e
00000300: 8b3e 2b3e 4c14 773e 8dcf 883e 84a2 2e3e
00000310: a45e f83d 0a97 9b3e 8280 453d f1aa a03e
0.084095314 0.22144291 0.23970896 0.4874574 0.3170847 0.2158773 0.13649862 0.13209192
0.04433842 0.12769368 0.2762746 0.3530759 0.17645438 0.29105031 0.15785438 0.42491752
0.17432332 0.010824451 0.18618575 0.5481872 0.26839235 0.16071366 0.2774019 0.14995982
0.3181852 0.21666119 0.13518235 0.0762373 0.3064135 0.24205543 0.45380855 0.11075763
0.11774246 0.18340205 0.36790276 0.2973995 0.12800698 0.3346226 0.19355929 0.24807201
0.14766656 0.3606147 0.24836977 0.08733232 0.2901826 0.12636475 0.08410221 0.3811452
0.2310351 0.2720392 0.02501124 -0.085805655 0.030729223 -0.2162904 0.15475851 -0.059692726
-0.10586121 -0.10642459 0.066428244 -0.13127571 0.02669185 0.10228314 -0.05102071 -0.116583645
0.15717986 -0.12840042 -0.07872195 0.1351036 0.1576417 0.104239576 -0.020048618 0.028766131
0.08374079 -0.03931909 -0.03958622 0.112890445 0.09974211 0.026336294 -0.17031266 -0.10063413
-0.030590853 -0.031874236 0.14661473 -0.022649955 -0.18622 -0.095609754 0.10364917 0.023176573
0.046716582 0.046859037 -0.010554444 0.08581203 0.040011242 -0.13860889 0.08861248 -0.05971358
-0.08164706 -0.00033705536 0.15086244 0.15064476 -0.26282024 0.1320627 0.086241156 -0.052351553
-0.021711608 0.15483442 -0.10974557 0.13672699 -0.02782984 0.21407318 -0.041226044 0.29179725
0.040804632 -0.08908186 0.061762504 -0.035800736 -0.19160622 -0.13531499 -0.21010806 -0.17064518
0.0054334607 0.10837263 0.024012657 -0.27418363 -0.043012217 -0.052831624 -0.048733786 0.03787466
-0.04344497 0.16419181 -0.18814401 -0.13237177 0.13415223 -0.06398725 -0.18501699 -0.10513933
0.20699117 -0.08747214 0.12574525 -0.22258124 -0.21825859 -0.20189445 -0.12610331 0.14702043
-0.27672687 -0.25481197 -0.2533882 0.3485373 0.25803125 -0.31418702 0.31107426 0.22899403
0.17521939 0.38398638 0.3279462 0.13231559 0.2724965 0.36120188 0.118203945 0.32392985
0.30160022 0.24426726 0.4051534 0.14920668 0.17628886 0.41576335 0.07865816 0.008818833
0.20813347 0.2634576 0.3037923 0.18926412 0.2273921 0.08331816 0.26967034 0.329063
-0.0066556954 0.3003487 0.26313218 0.19619744 0.4334919 0.1990132 0.119446106 0.33304435
0.28852555 0.17482774 0.07513971 0.20370959 0.29838157 0.17476413 0.13253997 0.2235946
0.16723077 0.24128836 0.2672085 0.17054182 0.12127426 0.3038867 0.048218258 0.31380418

linear.weight f4 [6, 50]
00000000: 112b 4abe 0ae6 bebd 168c 10be da86 bebe
00000010: 149c bb3d e756 a93d e7e9 cf3d 6297 27be
00000020: a465 2fbe d7cb 2dbe b329 863e 4014 38be
00000030: dd3f 4bbc 4130 883e e5c4 5f3e 7ec0 e3be
00000040: 37b4 23be 6287 413e e96f fd3c 7784 aabe
00000050: e965 84be 5436 6abe 8068 0a3e 0bd8 87be
00000060: efb0 5dbe 54a5 7bbe 9113 00be d59a 3dbe
00000070: 92bf 293e c715 583e 4902 903e 4a81 8abe
00000080: 2771 17be d9b9 3c3e 2b15 f43d ed3c 2ebe
00000090: 72ec 003e 46a4 e73d f2f6 15be fa7a 303e
000000a0: 4b74 833e 4544 a53e 8d51 9c3d 26a9 ebbd
000000b0: da58 4b3d 1b93 dbbd ca3e 9abe d065 813e
000000c0: ca29 213e b71b 46be 0384 53be eb79 6bbe
000000d0: b7fb 9d3e 3c4c de3e 2673 9a3e cf8e 883e
000000e0: 92f4 673a 32c3 54be bfc4 163b a02f 4bbe
000000f0: 0456 1abd a7e9 cebd fcb0 a2be e770 5a3e
00000100: 3aa5 783e 9d3d 663e 88b0 83be 7421 653e
00000110: c191 a03e ab0d d7bd ce81 773d 4ef7 31be
00000120: 600b c73e 132f bd3d bf10 703c 85d0 4bbe
00000130: 63f9 1cbe 62a5 9dbd 81d0 0b3e e666 a1bc
00000140: c7b2 633e fa5b 3cbd 06f9 81be 557c 593e
00000150: bf4a 513d 5d02 92be 1b2e e63d a9fa 4f3e
00000160: b554 90be 8183 723e fcc9 8c3e 8687 0ebe
00000170: 858d ac3e aa5a 65be 282b 863e 5ead d8bd
00000180: a80d 68be 4d0a 133e f10d 873e 59fb 70be
00000190: ea4d e63d ea08 b33e 6641 723e dc31 fb3d
000001a0: 3f7c 413d 1728 a43e 5c9c 32be e549 633e
000001b0: 5ae9 a43e 539a 8fbd 7718 9b3e 179a 49bd
000001c0: 4ddc 933e 6d7a 87be f767 183e 3e9c 5b3e
000001d0: 2e35 acbe b1ce 50be 78df 65be 16b0 60bd
000001e0: d244 193e f9da 67be adfb 953e 033b 40be
000001f0: ecfb 713d 61d4 19bd b1fa d7be d01e d5be
00000200: 2656 aebe 2cc9 24bd d553 5f3e c510 c8bd
00000210: b33c 16be f10d 49be b572 c5be 296d bc3d
00000220: b31d 4bbe 8f25 023e 1316 e3bd 6a30 74be
00000230: 61b5 da3d bbfc b23e c461 90be 9565 433e
00000240: 7a81 b93e 53da b6bd 1e2a cb3e b9e0 403d
00000250: 09ff bd3d 681e 1bbe 9fab 733e 52ac 8ebe
00000260: 7566 bf3c c403 e1bd 30df a7be 78dc 1cbd
00000270: fab2 6cbe f4b7 3fbe dc4f bb3d 0848 de3d
00000280: b8a3 08bc f407 6ebe 5425 68bd 92a7 34be
00000290: a98a fd3d 488d c3bd d5bb d2bd 02d6 173e
000002a0: 72bf e73c 4ad8 5b3e f679 16bc 289a 64be
000002b0: db30 4abd 3d85 74be f8cd 603d 4a94 86be
000002c0: c209 8cbe e018 6abe e5bb 3d3e 06bb bd3e
000002d0: 121a 9bbe 2676 52be 8936 b13e 0e6f 673e
000002e0: b8f1 273d 5b1f 133e b4ec 86bd e23d 72be
000002f0: 9436 9abe 144b 76be cbc6 143e fadc 753e
00000300: d62f 9fbe 6aa6 91be 83d0 45be d772 653e
00000310: ad10 a1bd 0ed7 80be c824 37be b095 6dbe
00000320: c587 c6bd f0c3 31be fde7 613c 1eeb 00be
00000330: 50f7 3fbe fd7a efbd c9e7 883e 2951 403d
00000340: 265a b1bd 1596 8cbe f99f 043e a4df 79bd
00000350: ac60 573e 8e15 613c 20d0 e2be 5b3f bebb
00000360: 19c4 42be dd7a 6c3e d713 17be 0b50 fabd
00000370: 10b2 3dbe b554 8cbd fe83 263e 21ab 1abd
00000380: c90d a6be 6b02 b13e 5152 b7bb e571 a7be
00000390: 20c2 053e 54de 3c3e b504 56be bd3b d73c
000003a0: f9a8 e63d 39db 5ebe 4130 8b3e a1c5 44be
000003b0: 585a 173e 9096 303e 844f 5dbe 27d9 7b3d
000003c0: f47e 1ebe c2ff b83d 3bc6 f2bd fa85 2ebe
000003d0: e722 3f3e 8832 25be ab7d a5bd 535c 28be
000003e0: ede7 363e 7e75 12be 7549 0ebd 458b b83d
000003f0: 2b78 9ebe a0ca bf3e e4d4 4fbd 133a 8f3e
-0.19742991 -0.0932122 -0.14115939 -0.3721226 0.09160629 0.082685284 0.10152035 -0.16366342
-0.17128617 -0.1697229 0.2620369 -0.17976475 -0.012405363 0.26599315 0.21852453 -0.44482797
-0.15986715 0.188993 0.030937152 -0.33304188 -0.25859 -0.22872287 0.13516426 -0.26532015
-0.21649526 -0.24574786 -0.12507464 -0.18516095 0.16576985 0.21102057 0.28126743 -0.27051765
-0.14789258 0.1843027 0.119181 -0.17015429 0.12590197 0.113106295 -0.14644983 0.17234412
0.25674662 0.32278648 0.07632742 -0.11506872 0.049645282 -0.107214175 -0.3012603 0.2527299
0.15738598 -0.1934651 -0.20655827 -0.22995727 0.30856106 0.43417537 0.30165976 0.26671454
0.00088483945 -0.20777586 0.0023005453 -0.19842386 -0.037679687 -0.101031594 -0.31775653 0.21332131
0.24281779 0.22484441 -0.2572062 0.22376043 0.313612 -0.10500654 0.060426526 -0.17379496
0.38875866 0.09237494 0.01465243 -0.19903763 -0.15329508 -0.0769756 0.13653757 -0.019702386
0.22236167 -0.045986153 -0.25385302 0.21238835 0.051096674 -0.28517428 0.11239263 0.20310463
-0.28189626 0.23682977 0.27497852 -0.13918886 0.3370172 -0.22397867 0.262048 -0.10579942
-0.2266146 0.14359398 0.26377824 -0.23533382 0.1124533 0.34967738 0.2365776 0.12265369
0.04723763 0.32061836 -0.17442459 0.22196157 0.32209283 -0.07011857 0.30292103 -0.049219217
0.28879014 -0.2646059 0.1488341 0.2144632 -0.33634323 -0.20391347 -0.22448528 -0.05485543
0.14967659 -0.22642125 0.29293576 -0.18772511 0.059078142 -0.037556056 -0.4218345 -0.4162507
-0.340501 -0.040230915 0.21809323 -0.097688235 -0.14671592 -0.19634224 -0.38564077 0.09200508
-0.19835548 0.1270964 -0.11088195 -0.23846593 0.106791265 0.34958443 -0.2819959 0.19081719
0.36231595 -0.08928361 0.3968057 0.047089312 0.0927716 -0.15148318 0.23795937 -0.27865845
0.023364285 -0.10987046 -0.32787466 -0.038296193 -0.23115149 -0.18722516 0.09146091 0.108535826
-0.008339815 -0.23245221 -0.056676224 -0.17642048 0.12379963 -0.09548432 -0.10289732 0.14827731
0.02828953 0.21469226 -0.009184351 -0.22324431 -0.049363 -0.23878951 0.054883927 -0.2628501
-0.27351195 -0.22861052 0.18528707 0.3705675 -0.30293328 -0.20552883 0.3461192 0.22600958
0.041002005 0.1436743 -0.06588116 -0.23656419 -0.30119765 -0.24052078 0.14528958 0.24010077
-0.31091183 -0.28447276 -0.19317822 0.22407089 -0.07864509 -0.25164074 -0.17885125 -0.23201632
-0.09693865 -0.173599 0.0137882205 -0.1258969 -0.18746686 -0.1169338 0.26739338 0.0469524
-0.086597726 -0.27458254 0.1295165 -0.061004296 0.21032971 0.013738049 -0.44299412 -0.0058058924
-0.19020118 0.23093744 -0.14753662 -0.12222298 -0.18524957 -0.06852094 0.16261289 -0.037760857
-0.32432392 0.34572157 -0.0055945297 -0.32704082 0.13062334 0.18444186 -0.20900233 0.026273603
0.11262698 -0.21763314 0.27185252 -0.19216014 0.14780557 0.17244935 -0.21612364 0.06148639
-0.15478116 0.09033157 -0.11854216 -0.17043296 0.18665658 -0.16132557 -0.0808061 -0.16441469
0.1786191 -0.14302632 -0.034738023 0.090109386 -0.30951056 0.37459278 -0.050740138 0.27973995

linear.bias f4 [6]
00000000: d99c 9abd bda4 613d 64c9 bbbd 4a4b 37bc
00000010: e4f3 44bc 3f5f 4e3d
-0.075494476 0.055088747 -0.091692716 -0.011187384 -0.012021039 0.050383803

lstm2.weight_ih_l0 f4 [24, 25]
00000000: 3ab0 813e fae2 863e 98d4 753e 44a9 84bd
00000010: 6099 473d b8ba babe b482 bfbe f202 a83e
00000020: 9fd3 7cbe a6a1 a13e 8635 8f3e 34fd 203e
00000030: c0bf 583e ce02 bcbe 84a6 08be 5c30 7b3e
00000040: 9cca 7b3e f26f 823e 74ec 97be 2450 0ebe
00000050: 747a 8abd cc9d 993d a41f 6a3e b481 ab3e
00000060: 42db cfbe cc9b c7bd 7c8d 3d3e 202d 08bc
00000070: 1e4c 9d3e 5055 31be d69c cf3e a2c9 8d3e
00000080: 9c6c bfbe 447d 513e 5ae3 9e3e a89d 373d
00000090: 14ae c63e 2e37 953e ebbb 58be f28f c7be
000000a0: f856 4b3e 5019 b03c aa46 82be 901e d6bc
000000b0: dce2 af3e d076 c4be 8050 f2bc 462b adbe
000000c0: 38f7 1cbd 380f 283e 07dc 26be d0ab b0be
000000d0: b0d7 59be ecb8 c3bd b922 6fbe e04e 22be
000000e0: b4aa ab3d 1db5 babe acfc b33e 087b 053d
000000f0: de6a afbe 0449 3ebe 60a3 f7bc a0e9 63be
00000100: 80b8 83be fc65 193e 91c0 49be 184f 3b3e
00000110: 60d2 5c3e 70ca a03c 8c65 973e 64fe a8be
00000120: a28b 8fbe 30ed 34be 9aa7 5fbe 540a 8d3e
00000130: 7ccf 6cbe 3cc2 bd3e 1c44 80be ba72 a83e
00000140: a059 903e ac7e 05be 6868 b3be 2e52 853e
00000150: 2868 8f3d 29cc a0be 3420 903e c465 fcbd
00000160: 7d63 5fbe 706a 00bd 9bc2 c7be 4ca7 7b3e
00000170: 6423 913e 3208 9bbe 0e9e bdbe 407c bf3d
00000180: c87b d23d f0c4 88be 5eb5 853e 7a64 c13e
00000190: f7e2 c3be ba1a 2ebe 88ec c0bd 90cf 35bd
000001a0: 42be bfbe b815 543e 3314 acbe 8bc0 9abe
000001b0: 50c2 90be 35a3 37be 6c70 7d3e 37f3 bdbe
000001c0: 4a43 d03e 9072 113e 725c 16be 6cea b13e
000001d0: 11ae 9bbe d33b 27be 806b 34bb 6c5f 38be
000001e0: a0c3 a5be 9823 91bd 61df d0be 5c43 983e
000001f0: 38c0 483e 04f3 c33e a014 1dbc b0d3 a8be
00000200: 1291 cbbe f01e 863d c08b eebc 70f3 c73d
00000210: 160d c43e c01b adbc 545f be3e 6eb4 ab3e
00000220: 2055 2dbc c451 a7bd 24cc 873e 4dc1 4bbe
00000230: 083b 7fbd 8460 933d 80f7 913e c24a 73be
00000240: 6048 5abc bc97 813e 049f 28be 0a34 a2be
00000250: 60e5 503e 10b2 f3bd 849a 1b3e 4c66 e2bd
00000260: 90e2 e4bc 9878 1c3d 1095 1f3e b81f 7a3d
00000270: 30dd b6bd 8010 643b 0022 f33b b810 493e
00000280: d2f8 abbe 00f4 943a df06 8bbe d699 94be
00000290: 80bf bbbc 6681 77be c6b2 09be 6cb3 2abe
000002a0: f0c9 46be 727c bbbe 1cbd c33e cc3c 9d3e
000002b0: 028d d03e f334 67be 263c 17be 207c fe3d
000002c0: 26d1 843e 940b 933d 3ab3 19be 2aff 9dbe
000002d0: 1ccc 873d 40b6 07be eeb5 943e 508e 023e
000002e0: 6850 7f3d bd81 97be 107a 953e 16ce a73e
000002f0: b09f 3f3d edb3 8abe dd91 b7be 883d e73d
00000300: b47d 423e c0cd f33b a43e a4bd d097 debd
00000310: 305f 863e 94e1 863e 70fe 793e 902c c9be
00000320: 9043 d53c 0eab 44be 19fd bcbe 98e9 7d3e
00000330: 2c4d b3bd 3527 4dbe 9867 893d 72d2 6fbe
00000340: 00c0 d4bc c216 09be 34fc 113e b82a b7bd
00000350: 1620 b33e a0ae a5bd f880 a33e 3836 cc3e
00000360: 7cdf 5b3e ad18 a6be 08ab 023e 80ee 30bd
00000370: 46ba 1cbe 7037 dc3d 246f a8bd cce6 c63e
00000380: 5c65 ba3e b875 763d e4f9 c33e 1918 3cbe
00000390: a8de cfbd c418 63be 1405 febd b0f2 83bd
000003a0: 54a6 fbbd 58e3 91be 7c33 86be ee64 9f3e
000003b0: c0a9 23bc 2443 a03e 7c95 633e 4229 a5be
000003c0: 0088 71be 21af 47be f045 9e3c 7919 73be
000003d0: 6c0b 523e a233 a1be caf7 9c3e 64a6 02be
000003e0: 3097 273e 8408 2e3e ecc9 ba3e 36d2 0ebe
000003f0: b14c b5be 202d 40bc 805b ba3e ba72 d03e
0.25329763 0.26345044 0.2400688 -0.06477597 0.048730254 -0.3647058 -0.37404406 0.32814747
-0.24690102 0.3156864 0.27970523 0.1572159 0.21166897 -0.3672089 -0.1334477 0.24530166
0.24589008 0.25476032 -0.29672587 -0.13897759 -0.06761637 0.075008005 0.22863632 0.33497393
-0.40596968 -0.09746513 0.18511003 -0.00831154 0.30722135 -0.173177 0.40549344 0.27692896
-0.3738755 0.20457941 0.3103283 0.044828087 0.38804686 0.2914366 -0.21165435 -0.3897701
0.19857395 0.021496445 -0.25444537 -0.02613762 0.34352767 -0.38371897 -0.029579401 -0.33822078
-0.038321704 0.16412055 -0.16294871 -0.34506083 -0.21273685 -0.095567554 -0.2335309 -0.15850401
0.083821684 -0.36466303 0.3515371 0.032588035 -0.3426122 -0.18582541 -0.03022927 -0.2225709
-0.257267 0.1498031 -0.19702365 0.1829189 0.21564627 0.01962778 0.29569662 -0.33006585
-0.2803622 -0.17668605 -0.21841279 0.27546942 -0.23126024 0.37062252 -0.25051963 0.3290003
0.28193378 -0.13036603 -0.35040593 0.2603926 0.07002288 -0.31405762 0.2814957 -0.12324098
-0.21815296 -0.031351507 -0.3901566 0.24575537 0.28347313 -0.3027969 -0.3703465 0.09349871
0.10277516 -0.2671275 0.26114935 0.3777197 -0.38259098 -0.17002383 -0.09420115 -0.0443874
-0.37449843 0.2071141 -0.3360916 -0.30225024 -0.2827325 -0.17933352 0.24749917 -0.3709962
0.40676337 0.14203858 -0.14683703 0.34749162 -0.3040624 -0.16331415 -0.0027529895 -0.1800515
-0.32375813 -0.07086867 -0.40795425 0.2973889 0.19604576 0.38271344 -0.009587437 -0.32974005
-0.39759117 0.065488696 -0.029119372 0.09763229 0.38291234 -0.021131396 0.37182105 0.33536094
-0.010579377 -0.081698924 0.26522934 -0.19897957 -0.062312156 0.07196143 0.2850914 -0.23758987
-0.01332292 0.25311077 -0.1646691 -0.31680328 0.204 -0.11899197 0.15195662 -0.11054668
-0.027940065 0.038200945 0.15584207 0.061065406 -0.08928907 0.0034799874 0.0074198246 0.19635284
-0.33588272 0.0011364222 -0.2715368 -0.29023618 -0.022918463 -0.24170455 -0.13447103 -0.16670007
-0.1941297 -0.36618382 0.38230217 0.30710447 0.4073258 -0.22578792 -0.14769039 0.12426019
0.25940818 0.07179943 -0.15009776 -0.30858737 0.06630728 -0.13253117 0.2904505 0.127496
0.06233254 -0.2959117 0.2919469 0.3277442 0.04678315 -0.27090397 -0.35853472 0.11291033
0.18993264 0.007440299 -0.0801976 -0.108688 0.26244497 0.26343977 0.24413466 -0.3929181
0.026033193 -0.19205877 -0.36911848 0.2479614 -0.08754954 -0.20034488 0.06709212 -0.23420122
-0.025970459 -0.13387588 0.14256364 -0.08943695 0.34985417 -0.08089948 0.31934333 0.39885116
0.21471971 -0.324407 0.12760556 -0.0431962 -0.15305433 0.10752761 -0.082243234 0.3884796
0.36405456 0.06017086 0.3827659 -0.18368568 -0.1014989 -0.22177416 -0.12403312 -0.06442773
-0.12287584 -0.28493762 -0.26211154 0.3113169 -0.009989202 0.31301224 0.22224993 -0.3225804
-0.23587036 -0.195004 0.019320458 -0.23740186 0.2051217 -0.31484705 0.30657798 -0.12758785
0.16366267 0.16995436 0.3648218 -0.13947377 -0.35410073 -0.011729509 0.36397934 0.4071253

lstm2.weight_hh_l0 f4 [24, 6]
00000000: 94db 31be 90ec bb3c 0496 b53e 0b4b 75be
00000010: 40e3 e9bc 189c 76bd 5095 9bbe 7c4c b63e
00000020: 0092 be3b 607f 423e 789f d03d 86be b13e
00000030: 0078 aebe fea4 c6be 84a3 8dbe dfa6 6dbe
00000040: 3a82 94be e477 693e a880 363e 70cb 4e3e
00000050: dddb a6be f451 9b3d fe77 b83e b1ca 45be
00000060: 48ce afbe fc52 1ebe 7c35 873d 380c 9a3d
00000070: 6246 863e 583b b93d 94fe c53e 7d25 35be
00000080: 0024 7b3d 24d4 5ebe c09a 7f3e e8e7 0a3e
00000090: 34b6 573e f42a 53be 908a 913e 68d2 293e
000000a0: 340f 813e f832 1fbe 2849 acbe 0675 57be
000000b0: 5271 8a3e d456 c4be 321b c93e 923c 7cbe
000000c0: c087 5c3d 5852 453d 1057 9e3c ed7f b7be
000000d0: d037 4a3e 10ca 70be 403c ef3b 8823 ea3d
000000e0: e804 c7bd e8a6 4c3d 1011 bf3c cca5 88be
000000f0: 7ee3 3cbe e463 a7be 88ee b4bd 004a 3f3d
00000100: 2028 8a3e 62a2 a1be 50f4 c3be 3477 643e
00000110: a0fa 87bc 3475 a23d 7a1d 953e b8f9 bf3d
00000120: 14aa 513e 2fa0 93be c49b b03d 6464 8dbd
00000130: dcb2 453e 48e2 933e 3c4b 8ebd dc0c 76be
00000140: 5475 6b3e 4013 dc3d 23ec 63be 70ee 193d
00000150: a0e2 ce3d b26f 953e ebc9 a2be 3e91 cbbe
00000160: 8efe 97be 5c40 c5bd cfa2 41be cc24 bb3e
00000170: f0f5 843d 2a02 05be 5c56 c63e 78cc 87be
00000180: 14a8 9abd 3e93 bf3e 1c68 833e 90bd f73d
00000190: b835 f3bd 60e7 603d ac43 8dbe 5f92 c8be
000001a0: ec86 20be 8dce 51be a82c 173e 0c17 c93e
000001b0: a064 af3d 59ca 93be 2098 ae3c 8544 77be
000001c0: 706f 8e3d f026 c23e 00ce 783b e874 c4be
000001d0: 9bf9 99be e7cc 9dbe c665 803e 18e3 c4be
000001e0: 182f c53d 3037 243e 4ef0 bf3e b2c6 b13e
000001f0: b06f d0bd 8920 a8be 1465 1bbe 4c0b 6a3e
00000200: d745 67be de3a a33e 5c71 4b3e dc37 3f3e
00000210: d060 1ebd 386b cf3d 909b ddbd f24c b6be
00000220: 0007 d3bc 0d72 a8be ba01 a7be 4f90 59be
00000230: be50 813e 203b 5e3e 2886 2bbe 50df 3f3e
-0.17368919 0.02293995 0.35466015 -0.23954408 -0.028550744 -0.060207456 -0.30387354 0.35605228
0.0058157444 0.18993902 0.10186666 0.3471567 -0.34075928 -0.38797754 -0.27663815 -0.23208188
-0.29005605 0.22799641 0.17822516 0.20194793 -0.32589617 0.07583991 0.36029047 -0.19315602
-0.34337068 -0.15461344 0.06601998 0.07521862 0.26225573 0.09044522 0.3867079 -0.17690082
0.06131363 -0.21760613 0.24961376 0.13565028 0.21065599 -0.20621854 0.28426027 0.1658417
0.25206912 -0.15546787 -0.33649564 -0.21040735 0.27039582 -0.38347495 0.3927856 -0.2463248
0.0538404 0.048174232 0.019328624 -0.35839787 0.19747853 -0.2351458 0.0073008835 0.11432558
-0.09717733 0.04996386 0.023323566 -0.26688993 -0.18446156 -0.32693398 -0.08834559 0.04670143
0.26983738 -0.315692 -0.38272333 0.22311097 -0.016599 0.07932511 0.2912405 0.09373802
0.20475036 -0.28833148 0.0862346 -0.069039136 0.1930651 0.28883576 -0.069479436 -0.24028343
0.22993976 0.10745859 -0.22258048 0.037580907 0.10101819 0.2918678 -0.31794676 -0.39759248
-0.29686397 -0.09631416 -0.18909763 0.3655151 0.06492221 -0.12989107 0.38737762 -0.26523185
-0.075515896 0.37417024 0.25665367 0.12096703 -0.118754804 0.054908156 -0.27590692 -0.39174172
-0.15676469 -0.20488949 0.14763129 0.39275396 0.085641146 -0.28865317 0.021312773 -0.24147232
0.06954849 0.37920332 0.0037964582 -0.38370442 -0.30073246 -0.3082039 0.25077647 -0.3845451
0.09628123 0.16036677 0.37488025 0.34721905 -0.10177553 -0.32837322 -0.15175277 0.22855872
-0.22585236 0.3188085 0.19867462 0.18673652 -0.038666546 0.10127872 -0.10820687 -0.3560558
-0.025760174 -0.32899514 -0.32618505 -0.21246456 0.25256914 0.21702242 -0.16750395 0.1873753

lstm2.bias_ih_l0 f4 [24]
00000000: c83a be3e e5e2 25be a0d4 ed3d 1821 c1bd
00000010: 7c7e 533e d0e8 21be 4048 5cbd b752 5dbe
00000020: f750 63be 1dd5 c1be 5814 81be 84f2 903e
00000030: 3b9e bdbe c633 b73e 1852 293e 1c67 3abe
00000040: d828 c63d 4fdc c6be 1a50 bfbe c4ee f9bd
00000050: 90dd 8f3e 360b 873e 00da 21be 2cdd ccbe
0.37154222 -0.16199835 0.116128206 -0.0943014 0.20653719 -0.15811467 -0.05377984 -0.21613584
-0.22198854 -0.37857905 -0.25210834 0.28310025 -0.37034783 0.35781687 0.16535223 -0.18203396
0.09675759 -0.38839957 -0.373658 -0.12203744 0.28098726 0.2637574 -0.15805817 -0.4001249

lstm2.bias_hh_l0 f4 [24]
00000000: 30d6 ab3e f039 59bd 5462 833d 623b b93e
00000010: 70b1 633d 7898 f73d 54d7 80be e4b7 e4bd
00000020: 1bfb 86be 6c62 1a3e be68 a0be 942c 083e
00000030: 0471 b8be b0ad d8bd 2069 d63d f6ea c73e
00000040: 124f 20be a0b2 56bd 008f 9abe f8f8 003d
00000050: 8012 273e 3ab7 9dbe 38df 693e 3aab ae3e
0.3356185 -0.05303377 0.06415239 0.36178118 0.05558914 0.12089628 -0.25164282 -0.11167887
-0.26363453 0.15076607 -0.31329912 0.13298255 -0.36023724 -0.10580003 0.1046927 0.39046448
-0.15655163 -0.052416444 -0.30187225 0.031487435 0.16315651 -0.30803853 0.22839057 0.3411501
