dylan/model: 2023-05-30 19:10.pth (torch, 47895 bytes, 6 tensors)

lstm.weight_ih_l0 f4 [200, 4]
00000000: c603 61bd 7c2e 2fbc c4fb a23d ac1d f9be
00000010: 2d9e 283d 3438 a03d cbe2 d3bb bd59 13be
00000020: f794 8e3e c616 32be d93e 2d3e 855f 363e
00000030: 9643 d0bd 5eb8 4cbe b519 c7bc d003 09bd
00000040: 7381 453e a5cf 993d 1dda adbe 40c2 9c3d
00000050: 5171 70be fe3d 75be 08a4 c83d e436 123e
00000060: f774 27be 1610 e3bd 5099 a13e f95d c8bd
00000070: c891 40be 530e eb3d 0099 07bd bbbc 803e
00000080: cb2e e03d 37fb efbd 33dd d4bc cdbc e63d
00000090: 9551 3bbd 552b 973e afff dabd 955b 1f3e
000000a0: 1f70 79be 4de4 743d 6954 93bd 4009 353f
000000b0: 7b8b 35bd 9d62 443e f93e 8d3e 6691 f0be
000000c0: 465f 153e 3c7c 24be c1ed cabd 29af 043d
000000d0: b635 c6be 0339 1b3b 9705 183f 4a4a 55bd
000000e0: 0728 923c 040d 82be 58ee 8bbd 1204 b63c
000000f0: 7ad2 eabe 42e5 d0be 8bc0 083c 310b d53e
00000100: 8b65 d6bd 349f b8bd fc9c 263e d9bb e63d
00000110: fc04 103c 0cbe c5bd fb79 61be 3704 b83d
00000120: 5f79 e8bb 7e6d 8cbd 002e 3f3e 722a b13e
00000130: 0b08 42be d889 56be 5643 d73e bc96 cb3e
00000140: f6e9 073c 1219 9b3e b432 e8bd ee0c 923f
00000150: 6cc5 633e 4821 f3bd 3cec 33be bb3f 5b3e
00000160: 535f f23d 43cb 99bc f0a7 6cbd ba34 db3e
00000170: f318 1abe 5632 74be 26bf de3c 6bd9 1f3e
00000180: 7127 443e f23c 7cbe 0fde 523e 066f fc3d
00000190: f3de 263e 9f1d dabd b591 96bd 59f7 c8bd
000001a0: b6b6 42be 1843 ccbe 937f c5be c2d7 ee3e
000001b0: cfe9 be3e 459a 603d 5a6e 92be 788c 86bd
000001c0: 3949 883e dfec c03c 770a 2d3e 6621 883d
000001d0: 4cd7 8cbe 084b 95be 7a7a 05be c2ae 453e
000001e0: f5d2 3f3e ba0a c5be e9a0 913d 2163 c3bd
000001f0: 8773 823c e763 97be 82ee dabd 3ccd 233f
00000200: 29eb d03e 9671 d7be 6c4f 81bd 5fa2 3f3d
00000210: f992 203e 565e 7dbe ce44 9b3d e271 623e
00000220: 4d09 71bd a024 92be feac 7abd 27fb b6be
00000230: 98ee efbe ea7a a4be bf21 cabe cb08 ba3d
00000240: 02d7 81bc e653 1cbe 931f d13d caa5 43be
00000250: 8d87 a0bd 6956 6e3e dddd c6bd d865 d63c
00000260: 2592 8c3e c4ef f2bc 9264 cbbe 9a47 9a3d
00000270: f4cf a6bd 04b5 823d c1b7 49be 5ae6 173e
00000280: fd08 483e 515b cf3e 7e37 b5be eaeb 643e
00000290: d7c1 fc3b af2d 15bd 406f 973e 0a58 843f
000002a0: 552a 2bbe bef7 e8be 2cde 233d 361a 283f
000002b0: 5b7a da3e bda1 03bd cf4c 603e 2263 62be
000002c0: 28f9 8ebd cd62 3bbe dd11 ffbd 7016 a2bd
000002d0: bc6a 46be 9539 e5bd ab8a 403e f201 7abe
000002e0: ca0e 7bbe 86c2 ed3e 51e8 9a3e 8f61 8c3d
000002f0: 52f9 1d3e 0c8b 58be a298 5d3e afbf 08be
00000300: 743a 943d d29a 38be dbbe 86be 88c8 c4bd
00000310: a15f cfbe 326e 1d3e b9f5 483e 013e ff3e
00000320: b5ae ccbe e9e6 013e a597 2dbb f452 4ebe
00000330: d4e0 5b3c 120f 71bd 2f64 103e 65b1 d43c
00000340: c72a e53e d3fd 60bd dd21 403e ca85 fbbd
00000350: 8511 593d 8cec 2dbe efd5 02bd 1d67 f23d
00000360: 3e57 863d 8240 523d 4890 12be 5962 a4bc
00000370: 263e b33d aba2 893d 2e91 363e 8831 f63d
00000380: 4270 babd cb07 1dbe 2a0a 6b3e a336 ab3d
00000390: 0e0d b7be fc7a 07be f082 93bc 7234 c2bc
000003a0: 9440 8d3e f214 6fbd aad8 e53d 98a1 a43e
000003b0: 4e38 433e 98b7 3b3e cd6b 8bbc 2773 0b3d
000003c0: a6ed 223e 0464 6f3e 66a1 6bbe 91f8 66be
000003d0: 3162 aa3d 83d1 64bd e742 403e e2ee d8bc
000003e0: 7e4c 46be 8131 3fbe f0b3 2bbe 2c5d 923e
000003f0: f9b4 35bc 9939 253e 619f e6bd 9887 8dbe
-0.05493524 -0.010692235 0.07958177 -0.4865545 0.041166473 0.0782322 -0.006466245 -0.14389701
0.27848026 -0.173915 0.16918506 0.17809875 -0.10169141 -0.19992206 -0.02430425 -0.0334509
0.19287662 0.07510308 -0.3395547 0.07654238 -0.23480727 -0.2394943 0.097969115 0.14278752
-0.16353212 -0.110870525 0.3156228 -0.09783549 -0.18805611 0.114773415 -0.033104897 0.2514399
0.10946425 -0.11717837 -0.025984382 0.1126648 -0.0457321 0.29525247 -0.10693299 0.1556228
-0.24359177 0.059788037 -0.07193834 0.7071724 -0.044322472 0.19178243 0.27587107 -0.4698593
0.14587125 -0.16063017 -0.09908629 0.03239361 -0.38712853 0.0023685105 0.5938353 -0.0520728
0.017841352 -0.25400555 -0.0683257 0.022218738 -0.45863706 -0.4079991 0.008346687 0.416101
-0.104685865 -0.090147406 0.16270822 0.11266298 0.008790251 -0.09655389 -0.22019188 0.08985179
-0.0070945467 -0.068568215 0.18669891 0.34602696 -0.1894838 -0.2095102 0.4204356 0.3976344
0.008295527 0.30292565 -0.11337796 1.1410196 0.22243279 -0.11871582 -0.17570585 0.2141103
0.11834588 -0.01877368 -0.057777345 0.42813665 -0.1504858 -0.23847327 0.027190756 0.15610282
0.1915567 -0.24632624 0.20592521 0.123258635 0.16295986 -0.10650181 -0.0735201 -0.09812803
-0.19015011 -0.39894938 -0.38573894 0.46648985 0.37287757 0.054834623 -0.28599817 -0.06569761
0.26618364 0.023550449 0.16898523 0.06646995 -0.27508008 -0.29158807 -0.13035002 0.19304946
0.18732817 -0.38484746 0.07110769 -0.09540392 0.015924228 -0.29568407 -0.10690023 0.6398504
0.40804413 -0.42078847 -0.06313977 0.04678571 0.15681066 -0.24743018 0.07581483 0.22113755
-0.05884676 -0.28543568 -0.061200134 -0.3573849 -0.4686172 -0.32125026 -0.3947887 0.090837084
-0.015849594 -0.1526638 0.102111004 -0.19106212 -0.07838354 0.2327515 -0.09710286 0.02617161
0.2745525 -0.029655345 -0.39725167 0.07533188 -0.08145133 0.06382182 -0.19699003 0.14833966
0.19534679 0.40499356 -0.353939 0.22355619 0.007713537 -0.03642052 0.29577065 1.0339367
-0.16715367 -0.45501512 0.0400068 0.65664995 0.42671475 -0.032136668 0.219043 -0.22108129
-0.069811165 -0.18299408 -0.12454579 -0.07914436 -0.19376653 -0.111926235 0.18802898 -0.24414805
-0.2451736 0.46437472 0.30255368 0.06854545 0.1542714 -0.21146792 0.21640256 -0.13354371
0.072377115 -0.1802781 -0.26317486 -0.09608561 -0.40502647 0.15374067 0.19624986 0.49851993
-0.3997704 0.12685741 -0.0026488092 -0.20148832 0.013420302 -0.058852263 0.14100717 0.025963495
0.447592 -0.054929566 0.18762918 -0.122813776 0.052995224 -0.16984767 -0.031942304 0.118360735
0.06559609 0.05133105 -0.14312851 -0.020066427 0.08752088 0.067204796 0.17828819 0.12021166
-0.09103443 -0.15335004 0.22953096 0.083600305 -0.35752147 -0.13230509 -0.018006772 -0.023706648
0.27588332 -0.058369584 0.11222966 0.32154536 0.19064447 0.18331754 -0.017019177 0.034045365
0.15910968 0.23377997 -0.23010787 -0.22555758 0.0831951 -0.05586387 0.18775521 -0.026481096
-0.19365117 -0.18671228 -0.1676786 0.2858671 -0.0110905105 0.16135253 -0.11260868 -0.27642512

lstm.weight_hh_l0 f4 [200, 50]
00000000: 07a8 d4bd 321d 80be edee d23e 84d2 303e
00000010: f25c e53d e9a7 8c3d 8141 1fbe fdae 843e
00000020: 4532 94bd 8862 b73e 2a2e e2bc 17bc 81be
00000030: dd38 82be 9e65 17be 2b16 7ebd 7218 44be
00000040: d8b6 c03d 3f6f 293d 0a40 5a3e 13b0 243d
00000050: d6a9 0d3f b65c fcbe b3de 823e 2a9c f0b9
00000060: 9f32 ea3c 824d b03e aa01 c93d a01f 053e
00000070: 075b d0be d412 2ebe 17a2 1a3e 92da f83d
00000080: 4b9e aa3e 63b0 39bc 8479 04be 1127 5abe
00000090: 988a 643b 4a11 45be ae84 8bbe 2c34 863d
000000a0: c3ed 963e d061 af3e 5932 d23b b410 803e
000000b0: 0759 c1bd 801e 1ebe e132 ae3e f782 453e
000000c0: 4349 553e 8d31 823e 3b56 313e 4923 b7bd
000000d0: 47f3 b6bc a872 9d3d 4335 153c 3410 92be
000000e0: d516 4fbd 01fa c2be 2eec a3bc 968d a3bd
000000f0: 1606 74bb ce39 d03e f912 a3be 7b05 003e
00000100: e158 f0bd 08c5 7e3e fcbd 573e bcf4 423e
00000110: 94c5 853e 148c 34be 6adb 4a3e 13ca cd3d
00000120: c9b3 db3c 9fc3 d7bd 034e e43c 3dcc 8ebd
00000130: 215d b33e b9f8 413e 4fff ab3d 5baa a83c
00000140: e67f adbe 96a1 00be 9efd 593c 41b3 d13e
00000150: e8b3 873e 45ec 8f3e 275d b7bc 594a 81bd
00000160: e03e a7ba 465e 08bd 65a6 1abe 4062 e3bd
00000170: de42 a53d 41a7 04be de2b 903c e63f 3bbe
00000180: e72d 113b 130e fcbd b80f cfbe fd90 89be
00000190: f88e 323e ed9a 28be 7d48 88bd 42ad 423e
000001a0: 4c4e e53d f3ef b03d 657d 24bd 9146 373d
000001b0: ce5c 88be 2a56 003e 6d85 f2bd 3f6c c33b
000001c0: e27e 25be f947 6ebe 4ff6 42bc cdd9 42be
000001d0: 9eba ac3b 9bf0 25bd 7d8f fb3e d700 383e
000001e0: 7566 eb3d 8f2c b3bd 7b18 373e 7716 473e
000001f0: c88e cdbe 6ada 033e 2c3a 31be c7c8 a63e
00000200: eb12 98bd 2a62 8f3e 5522 c6bd 32e3 be3d
00000210: 346e 05bc 6c22 873e bbc2 babd 5aa8 46be
00000220: 734b 03be 6321 e8bd 8347 93be 3430 ec3e
00000230: ea6c 983d e451 023e 6937 953e 08fa 893d
00000240: 70b6 15be 4e20 f63d 36ac 833e 500b 363e
00000250: a722 753e d1d7 38bd b1a6 61be f6fc 98be
00000260: 0961 c23e 9f39 6fbd 27b0 553e 8d3f a13d
00000270: ce6b 4b3d 1cb1 c8bd 613c ecbd a455 cc3e
00000280: 3606 493d efce f83b 3900 073e b81a 0abe
00000290: a2cb 6bbe 3b9c 07be d7c4 5c3e c686 1a3e
000002a0: 6c9b 013e f153 343e 73e3 1f3e da19 bebe
000002b0: 751c d13e b8ca ec3d 2089 f0bd 6896 953e
000002c0: 5c4a 25be ae1d e13d a228 d8be b064 1bbc
000002d0: f62c 903d cef7 a03e a357 13bd 7dea 413c
000002e0: 0795 33bd f64b 8a3c 33f6 053c 218f fc3c
000002f0: 8092 73be 6b86 2d3c c80a ae3e d6cb 80bd
00000300: 9922 b43c fc1a 8d3e 27cb bb3c ab82 2abd
00000310: 5d56 d33e 1d8c 9a3e 67b3 083c 4370 de3e
00000320: 75f4 0cbe e101 593c 1254 8bbe 1640 52bd
00000330: 4caf c73d b6eb 11bd d404 f93d 9bb8 44be
00000340: 6ef6 743d 0793 66bb 1007 b43d 1045 2bbd
00000350: ef2e fc3d 4893 5d3d 5ee8 143e a505 3bbe
00000360: 660b 63be 493e 883d 1230 1ebe d3a9 383e
00000370: 40a2 553e 87ab 8d3e 4cc9 0d3d 5b09 83be
00000380: fb2d 99bd 1de0 84bc 7f87 623e 040e 193e
00000390: 54cd 163e 207b 113e 5551 96be 1d2d 3abe
000003a0: bbff 5fbd a0f4 2dbe 2533 0c3e 4e92 203d
000003b0: ec19 bb3c a693 943c 1da3 2a3e 48e8 0abd
000003c0: 35bd 5f3e 7742 09be 7038 9e3e ce89 f9bd
000003d0: de55 003d fbb1 88bd 8492 cc3d 7039 1ebe
000003e0: c5ba a5bc fb48 123e 2668 97bd 200f 513e
000003f0: 34bb a1bd 7f71 0abe 94da 3b3e a980 8fbe
-0.10383611 -0.25022274 0.4119791 0.17267805 0.111993685 0.06867964 -0.15552332 0.25914755
-0.07236151 0.3581736 -0.027609903 -0.25338814 -0.25434008 -0.14784858 -0.06203286 -0.1914995
0.09409875 0.04136586 0.21313491 0.04020698 0.55337274 -0.49289483 0.2556053 -0.00045892718
0.028588591 0.34434134 0.098147705 0.13000345 -0.40694448 -0.1699937 0.15100895 0.12151064
0.33323893 -0.011333558 -0.1293698 -0.21303965 0.0034872647 -0.19244877 -0.27249664 0.0655292
0.29478273 0.34254313 0.0064146933 0.25012743 -0.09440809 -0.15441322 0.34023193 0.1928824
0.20828728 0.2542843 0.1731805 -0.08942277 -0.0223328 0.076878846 0.009106937 -0.28527987
-0.050558884 -0.38081363 -0.02001008 -0.0798599 -0.0037235073 0.406691 -0.31850412 0.1250209
-0.11735702 0.24879849 0.21068567 0.19038671 0.26127303 -0.1763156 0.19810262 0.10048308
0.026819127 -0.10535359 0.02786923 -0.06972549 0.3503199 0.18942536 0.083983056 0.020589044
-0.3388664 -0.1256164 0.013305096 0.40957072 0.26504445 0.28109947 -0.022383286 -0.06313009
-0.0012759827 -0.03329303 -0.15102537 -0.11102724 0.080693945 -0.12954427 0.017599043 -0.18286094
0.0022152604 -0.12307372 -0.4044168 -0.2686843 0.17437351 -0.1646535 -0.06654451 0.19011405
0.111965746 0.08639517 -0.040158648 0.04474503 -0.26633304 0.12532869 -0.11841855 0.0059638317
-0.16161683 -0.23269643 -0.011899545 -0.19028397 0.00527127 -0.040512662 0.4913291 0.1796907
0.114941515 -0.08748733 0.17880432 0.19442163 -0.40147996 0.12876287 -0.17307347 0.32575056
-0.07425483 0.2800458 -0.09674517 0.09320678 -0.00814395 0.2639345 -0.09119173 -0.19400159
-0.1282175 -0.11334493 -0.28765497 0.46130526 0.07442649 0.12726551 0.29143837 0.06737143
-0.14620376 0.120178804 0.25717324 0.17777753 0.23939 -0.045127694 -0.22036244 -0.29880494
0.37964657 -0.05840456 0.20867978 0.078734495 0.049663357 -0.09799406 -0.11534954 0.3990909
0.04907819 0.007593028 0.13183679 -0.13486755 -0.23026899 -0.13243191 0.21559463 0.15090474
0.12656945 0.17610146 0.15614109 -0.37129098 0.40842023 0.11562103 -0.117449045 0.29216313
-0.16141647 0.10991989 -0.422185 -0.009484455 0.070398256 0.3143906 -0.03597225 0.0118356915
-0.043843295 0.016881924 0.008176374 0.030829968 -0.23786354 0.01059113 0.339926 -0.062888786
0.021989154 0.2755965 0.022924019 -0.04162852 0.41276827 0.30185023 0.008343554 0.43445024
-0.13765128 0.013245077 -0.27212578 -0.05133065 0.09750232 -0.035625182 0.12159124 -0.19211046
0.059805326 -0.003518285 0.087904096 -0.04181391 0.123136394 0.054095536 0.14541766 -0.18263872
-0.22172317 0.06652505 -0.15448025 0.18033533 0.20862675 0.27669927 0.0346158 -0.25593075
-0.07479473 -0.016220147 0.22122 0.14946753 0.14726764 0.14207125 -0.29358926 -0.18181272
-0.054687243 -0.16987848 0.13691385 0.039202027 0.022839509 0.01813681 0.16663785 -0.033912927
0.2184952 -0.1340426 0.30902433 -0.12184487 0.03133189 -0.06674572 0.09988883 -0.15451598
-0.02023066 0.14285652 -0.073929116 0.20415926 -0.07897034 -0.13519858 0.183451 -0.28027847

lstm.bias_ih_l0 f4 [200]
00000000: 31e2 2dbd 9b77 993e e704 903e b277 153e
00000010: d036 b23d 1ccf 6b3e 6cfb 013e 4bf3 883e
00000020: 8d93 1e3f 44c3 903e 95d5 0b3e b960 a53e
00000030: 0320 1f3f 6c78 0e3f f040 e1bb 3834 893e
00000040: 0c87 293f c1d5 433e a36a 2d3f d458 523e
00000050: 09fa 1e3f b878 ae3e 0050 503e 3518 303e
00000060: e882 d13e c481 063f 8501 153e 29b9 903e
00000070: 6db1 893e 1d08 b03e a0ad 8d3e e2f8 ee3e
00000080: a22d b73e bbb9 0c3f 8840 cb3e 30b9 9f3e
00000090: 3755 2b3d 65ad d03e ac36 5e3d 4dba 983e
000000a0: fa42 333e 180b bc3e ea8c 533e 31c8 c23e
000000b0: f80a 1d3e dcc2 7c3c 41d8 a63e cf88 c23e
000000c0: f691 dc3e 50f6 ec3d c54b 303c 052f 233e
000000d0: e0bf 1c3d b4ca 57bc 0b18 753e 3584 c7bc
000000e0: e04b 943d 21f3 1bbe 78a6 23be f399 da3b
000000f0: cd25 c13d 7e14 dfbe 42f4 0a3b 213f bf3d
00000100: 00a6 d1bd d741 b6bd 1610 31bd 9ae5 29be
00000110: f74c 86bd 73b7 debd 3221 36be dd30 a93c
00000120: bb17 e33d 8d03 103e ecce 7dbe cb55 3dba
00000130: 2897 e4bd 4532 a23d 5ffd 6fbd 00f6 0bbe
00000140: 9e05 3b3d e1a1 0c3d b012 2abd 43d6 96be
00000150: eb76 0fbe 6130 963d 2107 ee3d dc42 88bd
00000160: 8452 d2bd 8d0e 3c3e 3062 07bd aafd 06be
00000170: 519c 65bd f30e f03d 9241 273e 89e6 db3d
00000180: 9887 583d 347b 983c 0c7e 073e 3d88 c2bd
00000190: 332c 33bd 8ae2 2cbe 5695 b33d 4a5d d83d
000001a0: c2ce 963e 96a3 0f3e 0f4e 40be ef9f 943e
000001b0: a5e6 a3be dceb 6b3e 2295 06be 0dc6 293e
000001c0: de55 dbbd 3f72 06bf bfbd 6a3b b982 61bd
000001d0: e0ac 223e 133b 8ebd 1ac6 cf3d 8e53 493e
000001e0: c167 a63d 3d11 ebbd 7ffc 413e a423 123e
000001f0: f368 aabd 1daa d03e bc66 15be 45f4 6c3e
00000200: 1b4c 87be 40d0 823d 655f e83d f751 1b3e
00000210: 8295 d73d 5063 b33d cb1b 39be 6ba6 d1be
00000220: 4444 b1bd 59d5 76bd 29df 0ebf d6e1 583e
00000230: 50ab 4c3c 8da4 fd3d 59f5 e93d 2d5a e83e
00000240: aec1 71be d956 24bd 4fcd 8c3e 0513 9d3e
00000250: 7bc3 a83a a0ec 243d 0149 153e ea3a 933e
00000260: 7719 c83e 368d 3b3e 946d 163e 79f8 933e
00000270: bd32 5b3e 0638 093f 005d 383f 399c b23d
00000280: 9042 703e c045 1d3f 9d8f 2f3f 5884 ba3e
00000290: 833b 9d3e d019 da3e 43f9 573f eba5 663e
000002a0: 9e65 5b3f c9d5 ae3e b7a7 f13e 5a9d 023f
000002b0: e41d b23e bbb5 123e 2ff9 083f 3724 f93e
000002c0: bcc1 d83e c862 e63d 7570 803e 2a13 c73e
000002d0: 2deb a03d b002 c43e 0a92 993e a0b4 243f
000002e0: 6f7f df3e f9d5 9a3e 0c9b eb3d f7e7 a63e
000002f0: 9fa0 703e afe5 7b3e 4b3b 3b3d 919e dd3e
00000300: 6e12 d03e ddc1 963e c945 2b3e 4798 1e3e
00000310: acf3 c93e 57a0 9b3e d139 a53e fd86 a33e
-0.04245204 0.29974064 0.2812874 0.14596441 0.08701861 0.23028225 0.12693566 0.26748118
0.61943895 0.28273976 0.13655694 0.32300356 0.6215822 0.556525 -0.006874196 0.26797652
0.6622169 0.1912451 0.6774084 0.20541698 0.62100273 0.34076476 0.20343018 0.17196734
0.40920186 0.52541757 0.14551361 0.28266266 0.26893178 0.3438119 0.27671528 0.46674258
0.35777003 0.549709 0.3969767 0.31195974 0.041829314 0.4075729 0.054251358 0.29829636
0.17506018 0.36727214 0.20659223 0.3804336 0.15336215 0.0154273175 0.32586864 0.37995002
0.4308011 0.11570418 0.010760252 0.15935905 0.038268924 -0.013170887 0.23934953 -0.024355033
0.072410345 -0.15229465 -0.15981472 0.006671184 0.09431038 -0.43570322 0.0021202718 0.09338213
-0.1023674 -0.08899277 -0.04322823 -0.16591492 -0.06557649 -0.10874834 -0.177861 0.020653183
0.110885106 0.14063855 -0.24785966 -0.0007222562 -0.11161643 0.079197444 -0.058591243 -0.1366806
0.045659654 0.034334067 -0.041521728 -0.29460344 -0.14010207 0.07333446 0.116224535 -0.066533774
-0.10269645 0.18364926 -0.033052623 -0.13182703 -0.056057278 0.11721601 0.16333607 0.107373305
0.052863687 0.018613435 0.13231677 -0.09498642 -0.043743324 -0.16883293 0.08768718 0.105646685
0.2945462 0.14027247 -0.18779777 0.2902827 -0.32011905 0.23039192 -0.13142827 0.16579457
-0.10709737 -0.52518076 0.0035818664 -0.055056307 0.15886259 -0.06944861 0.10145207 0.1966078
0.08125258 -0.11477897 0.18943976 0.14271408 -0.08320799 0.40754786 -0.14589971 0.23140056
-0.2642525 0.06387377 0.1134632 0.15167986 0.10526563 0.08759177 -0.18077008 -0.4094728
-0.08655599 -0.060262058 -0.55809265 0.211799 0.012492016 0.12384901 0.114237495 0.453813
-0.23609039 -0.040121887 0.27500388 0.30678573 0.001287564 0.040264726 0.1457863 0.28755885
0.39081928 0.18315586 0.14690238 0.28900507 0.21406074 0.5360111 0.72016907 0.08721203
0.23462892 0.61434555 0.6857851 0.36429095 0.30709466 0.42597818 0.8436472 0.2252423
0.8570193 0.3414748 0.4719827 0.5102135 0.3478843 0.14327137 0.53505224 0.48660442
0.42335308 0.1124931 0.25085798 0.3888181 0.07857356 0.382833 0.2999423 0.6433811
0.43651912 0.30241373 0.11504182 0.3259885 0.23498772 0.24599336 0.045710843 0.4328504
0.4063906 0.2944478 0.1672584 0.15487777 0.3944372 0.30395767 0.32270673 0.31938925

lstm.bias_hh_l0 f4 [200]
00000000: caa2 5bbc 8576 d43e dcb6 843e ca74 1a3e
00000010: 84b6 5a3e beec 443e f48e 263d 55cb 8a3e
00000020: 2698 3a3f 7b22 2a3e 2515 223e 5396 053e
00000030: cd1b e13e 38a9 ed3e afc1 d73c b2b9 a03e
00000040: cefc 2e3f 756d 4e3e 9d0c 393f 3be2 853e
00000050: 067e fe3e 6640 873e d992 9a3d bee4 933e
00000060: 64ae 8b3e 9056 053f d273 f93d 7504 a43e
00000070: 8d79 593e 8620 033e 516b 833d 529a b73e
00000080: d6ee ed3e dd2d 1d3f d799 ad3e 62bc 943e
00000090: 21cf 943a 3332 ba3e b340 a83d b9d0 9e3e
000000a0: 89fd 97bc ef28 173e 65a1 7e3e dc18 983e
000000b0: 7c3f 0b3e 7a7e 273d 1710 963e 7bb7 053f
000000c0: 18e6 913e ba2d 513e c3d2 2f3d 8ec6 1c3c
000000d0: 2e61 393d 4400 f83d 1f2f 513e 1f46 1bbd
000000e0: f75e 0b3e 9444 b4bd 1a1a 32be 7d3b 793d
000000f0: 58c3 f4bd f009 ccbe 330f 0e3e e50c 8fbd
00000100: 9b34 37be 3db8 5bbd 9bda ebbd d679 abbc
00000110: 01e9 5bbe df50 1dbd 04ca 5bbe 7cf9 003c
00000120: 022f 1ebe 2005 a73d 6a10 81be 3e73 d33d
00000130: 9062 5bbe 63e0 4bbe 1661 04bc 093e 42bd
00000140: 3836 233e f4c2 a6bd 0d38 a3bd 7db2 afbe
00000150: d3f9 24be 0719 f83c 12bc fdbc 00bf 963b
00000160: f4b7 bebd 175a f93d 914f 5abc 6d8d 38be
00000170: ca8e 103c d931 093e 3c15 833b ed0c a3bd
00000180: 29d3 25be cdc7 203d 664e 353b f3d4 243c
00000190: 7013 37bc 0625 8ebe a28b 683e 2aa1 2c3e
000001a0: 6579 803e 17f5 4b3c bc0f eabc 6b30 e23d
000001b0: 318a bebe e40b ab3e cadd 62be 3bd8 583e
000001c0: 42c4 fabd 2776 96be 4d65 253d 0009 22be
000001d0: 03ec 80bd 966e 49be 2e9e fa3d 0221 363e
000001e0: 9bef 863d ce20 bc3c 2144 423e f9df d53d
000001f0: e7a8 943d 6878 aa3e ae0e 9a3d 1f4a 3d3e
00000200: 5533 66be 5cd6 613d 5f64 b13d 1b96 203e
00000210: a285 983d 09bf 5e3e 69ab 0ebe 3d8d 38be
00000220: 8689 513d 934e 833d 4ed5 e7be 2e11 5d3e
00000230: ae43 563e b0e3 e9bc 8292 e6b9 89c3 bd3e
00000240: ae49 42be 4cde 333c 1bb9 973e f088 623e
00000250: 4e4d e13b eb00 64ba 329a 623d 409c 503e
00000260: b7a1 ef3e 5e2f 853e a1db 683e cee3 4b3e
00000270: 3c4d 7b3e 0201 e83e a633 2c3f 95bd 893e
00000280: 6559 8f3e 9cca 0c3f 96d1 e63e ae2b f03e
00000290: 90b7 4c3e 94f0 ff3e 19cc 503f de7d 753e
000002a0: ed5e 663f 8fac aa3e 359a 0f3f aa0b fa3e
000002b0: 2eae a63e 575c 823e acb2 c43e 0d1f 873e
000002c0: cddd d33e 1f0b 073e 8602 e03e f072 6d3e
000002d0: de28 013e dd1c e83e 12ae b43e 3c60 303f
000002e0: 3a9f d83e 2ff4 a63e 97ce 513e 1152 0a3f
000002f0: 33af a23e 9e9c 923e 0c03 1e3e e8fb 003f
00000300: 1e0e a63e 6a52 923e d1b0 073e 6617 973d
00000310: a42f b13e f7a5 463e 7f14 a33e fc07 8e3e
-0.013405511 0.41496673 0.2592076 0.15083614 0.21358687 0.19230935 0.040663674 0.27108255
0.7288841 0.16614716 0.15828378 0.13045625 0.43966523 0.46418166 0.026337473 0.31391674
0.683545 0.20158942 0.7228487 0.26149163 0.49705523 0.2641632 0.0754754 0.28885454
0.27281487 0.5208521 0.12180294 0.3203465 0.21237774 0.12805375 0.06416953 0.35859925
0.4647128 0.61398107 0.33906433 0.29049975 0.0011353233 0.36366424 0.082154654 0.31018618
-0.018553512 0.14761709 0.24866255 0.29706466 0.13598436 0.0408921 0.2930915 0.52233094
0.2849586 0.204276 0.042925607 0.0095688235 0.045258693 0.12109426 0.20428132 -0.03790867
0.13610445 -0.08802143 -0.1739277 0.060847748 -0.11951321 -0.39851332 0.13872986 -0.06984881
-0.17891161 -0.0536425 -0.11516305 -0.02093212 -0.21475603 -0.038407203 -0.21463782 0.007871982
-0.1544762 0.081552744 -0.25207835 0.10324715 -0.21424317 -0.19909815 -0.008079788 -0.047422443
0.15938652 -0.08142653 -0.07969675 -0.34315863 -0.16110925 0.030285371 -0.030973468 0.0046004057
-0.0931243 0.121753864 -0.013324634 -0.180227 0.008823106 0.13397922 0.004000334 -0.0796145
-0.16193832 0.039253045 0.0027665137 0.010060537 -0.011174068 -0.27762622 0.22709516 0.16858354
0.25092617 0.012448571 -0.028571956 0.11044391 -0.37214807 0.3340751 -0.22154918 0.21176235
-0.122444645 -0.29387018 0.04037981 -0.15823746 -0.06295016 -0.19671091 0.12237202 0.17786029
0.0658867 0.022964861 0.18971302 0.1044311 0.07258778 0.33294988 0.07522331 0.18485306
-0.22480519 0.05513607 0.086617224 0.1568226 0.074473634 0.21752562 -0.13932575 -0.18022628
0.051156543 0.06411471 -0.45279926 0.21588585 0.20924255 -0.028550953 -0.00043978175 0.37063244
-0.18973419 0.010978293 0.29633412 0.2212255 0.0068756705 -0.00086976466 0.055322833 0.20372105
0.46803066 0.260127 0.22740032 0.1991112 0.24541181 0.4531327 0.6726631 0.26902452
0.2799789 0.5499666 0.45081776 0.46908325 0.19991899 0.49988234 0.8156143 0.23973796
0.89988595 0.33334777 0.56094676 0.48837024 0.32554764 0.25461075 0.38417566 0.26390877
0.41380158 0.13187836 0.43751925 0.23188376 0.12613246 0.4533452 0.35289055 0.6889684
0.4230898 0.32608172 0.20488964 0.54031473 0.3177429 0.28635114 0.1543085 0.5038438
0.32432646 0.28578502 0.13251044 0.0737751 0.3460666 0.19399248 0.31851575 0.27740467

linear.weight f4 [4, 50]
00000000: cb36 413e b248 94be 26c1 7c3e 280c aabe
00000010: c1ac 803e e1ae 31be b123 113e 3e1a acbd
00000020: 9152 933e 3edc 203e 3c00 843e b860 c3be
00000030: ac36 4abc 0ed8 8d3e 343b d9be 7b83 ce3d
00000040: c91a a83e d4da a6be e3f1 c3be 73a6 4cbd
00000050: 1d25 433c 00f5 abbe dde9 b43e 1f3f 51be
00000060: 40f2 ae3e 0e85 7c3e b473 023e 436e fd3d
00000070: aef8 8ebe 1fa1 ce3c 943e 75be e7bb 26be
00000080: d0fe 7d3e 3fec 6cbe a6c4 8cbc e6af 203e
00000090: ed9f 29be 2c92 873e e7e5 dabd 3867 dfbd
000000a0: 9e8f 823e 8a92 943d fddb 223e 915e 9a3e
000000b0: 491c 2c3e a14f 9d3d cc1a 543c 25be 543e
000000c0: a40f 79be 1d24 0c3e 96cf 2f3d 871d 6bbe
000000d0: 7ee4 4dbe dc0f b5be d473 823e cbcd d2be
000000e0: 989a 9a3e ca9d a83e aa8e 043f 7020 733e
000000f0: 8bd3 ab3d bea6 ee3d dd9e 6a3e 7ae2 9f3e
00000100: eb0d 2dbe 13af 953e 228f eabe 0280 24be
00000110: 80c4 083f 34c9 02be 60f2 873d 19d3 58be
00000120: 79d4 143d b963 93be 8838 11bd a054 b43e
00000130: c7fe 17be 847c 393e 80b3 97be 1960 b63d
00000140: b982 63be 1d52 c73e 8378 073d 1092 cfbe
00000150: df0e 9fbe b517 8d3e 56fe 58be 8a17 683d
00000160: 7baf 98bd aeb3 07bd a741 193e e707 de3c
00000170: d193 073e 7319 cc3e ac13 0c3e db44 a53e
00000180: f28a 4d3e 5f11 90be f419 8ebe 6a15 833d
00000190: eb21 67be 4d6d 4d3c d26a 883e bfeb 88be
000001a0: d1e4 9cbe 72f5 763e f17b 5fbe 3cd2 c83e
000001b0: 863a dabe 3abe 8cbd e203 ac3e e347 503e
000001c0: 6772 af3e 7cdd 0fbe b8b4 9d3e 8ae0 3c3d
000001d0: 059d 4a3e db05 f3be 24f7 b1bc 4dae cd3d
000001e0: 9b49 49bd 85c4 d6be 3499 57be ad52 8a3d
000001f0: 1cc5 b1be 5b12 42be 190b bb3e b92d 83be
00000200: 2d6a 5d3d 638f adbe 6cda dc3d 3ede 943e
00000210: ca73 5a3e ae92 87be 3b29 99be 53d4 893e
00000220: bdf7 983e 8ddd 9c3e 33c9 c23e 9e4e 6fbe
00000230: b06a babe e201 afbd 4a75 65be 8574 36be
00000240: 9b40 ad3c fd80 afbe e773 a83e 6f16 c43e
00000250: dac7 79be 6c5c 7f3e a2d9 c63e e11d df3d
00000260: bd22 9c3e 194f dcbd de31 173d a3ae c43d
00000270: 14dc 863e 147e b53d 5db0 a83d bda7 3bbd
00000280: 46af d1bd ebfc 39be c9ec c73c c8ce 97be
00000290: 9c16 91be d29a 48be 0a90 6f3e c52c b9bb
000002a0: 2828 9fbe 5d3f cebe 1693 99bf 597c f2bd
000002b0: 758b 4d3e 9746 6dbe 7339 613e 5220 51be
000002c0: 1365 04bf 20ae a4be 0260 01be 11c3 323e
000002d0: fed0 153c ce6b 5b3e 3069 ad3e e113 d6be
000002e0: 948d 32be 5945 70be 32aa 7abe 2df3 38be
000002f0: 41b4 9d3d fcbd 87be dcfd 023f b7b2 443f
00000300: f852 02bf 0bdd d43d c74a 363e 9329 413e
00000310: 66b7 37be b5e4 173e 6040 95bd 6efc 553e
0.18868558 -0.28961712 0.24683055 -0.332124 0.251318 -0.17351867 0.14173771 -0.08403443
0.2877393 0.15709016 0.2578143 -0.38159728 -0.012342136 0.277039 -0.4242798 0.10083672
0.32832935 -0.32588828 -0.38270482 -0.049963426 0.011910704 -0.33585358 0.35334674 -0.20434235
0.34169197 0.24660131 0.1273945 0.123745464 -0.27924103 0.025223313 -0.23949653 -0.16282617
0.24804235 -0.23136996 -0.017183613 0.156921 -0.16564913 0.26478708 -0.10688382 -0.10908359
0.25500196 0.072545126 0.15904231 0.30150273 0.16807665 0.07681204 0.012945842 0.2077566
-0.24322373 0.13685651 0.04292258 -0.22960483 -0.20106694 -0.35363662 0.25478995 -0.41172633
0.3019607 0.32932884 0.5178019 0.23742843 0.08389958 0.11652897 0.22912164 0.31227475
-0.1689984 0.29235134 -0.45812327 -0.16064456 0.53424835 -0.12772065 0.06638026 -0.21174277
0.036335442 -0.2878702 -0.035454303 0.35220814 -0.14843284 0.18113905 -0.29629135 0.08905048
-0.22217835 0.38929835 0.033073913 -0.40541124 -0.31066033 0.2755715 -0.21190771 0.056663074
-0.07455345 -0.03313034 0.1496645 0.027103378 0.13239981 0.39863166 0.13679379 0.32279095
0.20072535 -0.28138253 -0.27754176 0.06400569 -0.22571532 0.012538266 0.26643997 -0.2674236
-0.30643323 0.24117067 -0.21824624 0.39222896 -0.42622775 -0.0687222 0.33596712 0.20339923
0.3426697 -0.14049333 0.3080194 0.046112575 0.1978646 -0.47465405 -0.021724291 0.10043011
-0.04914246 -0.41946808 -0.21054536 0.067540504 -0.34720695 -0.18952315 0.36531904 -0.2562082
0.054056335 -0.33898458 0.10783848 0.29075807 0.21333233 -0.26479095 -0.2991427 0.26919803
0.2987651 0.3063778 0.38044128 -0.23369834 -0.3640952 -0.08545281 -0.22408023 -0.17817886
0.02114897 -0.34278098 0.32900926 0.38298365 -0.24392644 0.249376 0.38837916 0.10894371
0.30495253 -0.10757274 0.03691279 0.09603622 0.2633978 0.08861938 0.082367636 -0.045814265
-0.10238509 -0.18162887 0.0244049 -0.2964995 -0.28337562 -0.1959031 0.2339479 -0.005651089
-0.31085324 -0.40282717 -1.1998012 -0.11840124 0.2007273 -0.23171459 0.21994571 -0.20422485
-0.51716727 -0.32164097 -0.1263428 0.17457224 0.009144066 0.21427843 0.33869314 -0.4181204
-0.1743682 -0.23463954 -0.24478987 -0.18061514 0.07700396 -0.26512134 0.5116861 0.768352
-0.5090785 0.10393723 0.17801963 0.18863516 -0.17941055 0.14833339 -0.07287669 0.20897076

linear.bias f4 [4]
00000000: 7e3b 74bb 44f8 d23a 2111 c0bc b6a7 c93d
-0.0037266905 0.0016095717 -0.023445668 0.098464414
