dylan/model: 2023-05-22 14:46.pth (torch, 5435 bytes, 13 tensors)

Encoder.lstm.weight_ih_l0 f4 [8, 1]
0	0xbd37f955	-0.044915516
1	0xbebc06b3	-0.3672386
2	0x3f351908	0.7074132
3	0x3e18eec6	0.14934835
4	0x3f0a583c	0.54040885
5	0xbe405966	-0.18784103
6	0xbee59f38	-0.44848037
7	0x3fcce9c0	1.6008835

Encoder.lstm.weight_hh_l0 f4 [8, 2]
0	0x3ee20608	0.44145226
1	0xbdd4efd6	-0.103973076
2	0xbfe32763	-1.7746395
3	0xbfddd310	-1.7330036
4	0x3d2ab6c0	0.04167819
5	0xbf3d7966	-0.74013364
6	0xbd9267b6	-0.071486875
7	0xbf62c144	-0.8857615
8	0x3f82f153	1.0229896
9	0x3dce48f9	0.10072512
10	0x3e8c2283	0.2737008
11	0xbf224f3f	-0.6340217
12	0xbcb85072	-0.022499297
13	0xbfc4ff70	-1.5390453
14	0xbf432fa5	-0.76244575
15	0x3ef5f9e1	0.48042205

Encoder.lstm.bias_ih_l0 f4 [8]
0	0xbd972d4b	-0.07381686
1	0xbeaf5003	-0.34240732
2	0xbed4a7e4	-0.4153434
3	0x3d5dfcea	0.054196276
4	0x3f368812	0.71301377
5	0xbe26db57	-0.16294609
6	0xbedcdf29	-0.43139008
7	0x3f57c11e	0.8427905

Encoder.lstm.bias_hh_l0 f4 [8]
0	0xbdd9cf05	-0.10635189
1	0x3daab83a	0.0833592
2	0xbf16352f	-0.586749
3	0x3f250840	0.64465714
4	0x3e1cbbe0	0.15306044
5	0x3e297ebb	0.1655225
6	0x3f645d35	0.8920472
7	0x3f5c8002	0.86132824

Decoder.lstm.weight_ih_l0 f4 [8, 1]
0	0x3ff3aede	1.903774
1	0xbe324e44	-0.17412668
2	0x3f020129	0.5078302
3	0xbcbe1546	-0.023203503
4	0xbe1977c8	-0.14987099
5	0xbf10c4ac	-0.565501
6	0x3e0bcd22	0.1365247
7	0xbdca93eb	-0.09891494

Decoder.lstm.weight_hh_l0 f4 [8, 2]
0	0x3f78388d	0.9696129
1	0x3ee66345	0.44997612
2	0x3fd7848e	1.6837327
3	0xbdc39248	-0.09549385
4	0x3e9e4f55	0.309199
5	0xbf5e6255	-0.8686879
6	0xbe3a261d	-0.18178602
7	0x3e9d4f04	0.30724347
8	0x3de3b68e	0.11118804
9	0xbeb57f0d	-0.35448495
10	0x3fa07984	1.2537084
11	0xbf8c1191	-1.0942861
12	0x3f444c54	0.7667897
13	0xbf3efcc6	-0.7460445
14	0x3fe0031c	1.7500949
15	0x3eeaa2e0	0.4582739

Decoder.lstm.bias_ih_l0 f4 [8]
0	0x3fc76ad0	1.5579472
1	0x3fc7315b	1.5561937
2	0xbf60ac8a	-0.87763274
3	0x3f6f8248	0.9355817
4	0x3e920462	0.2851897
5	0xbdad3586	-0.084574744
6	0x3f5b3a08	0.85635424
7	0x403330ab	2.7998455

Decoder.lstm.bias_hh_l0 f4 [8]
0	0x3f578342	0.8418466
1	0x3f92312e	1.1421258
2	0x3e9c784a	0.30560523
3	0x3ebfabaf	0.37435672
4	0x3e53d939	0.20688333
5	0xbe924008	-0.28564477
6	0x3fa6906c	1.3012824
7	0x401546b0	2.3324394

Decoder.fc_decoder.weight f4 [1, 2]
0	0x3ff5b316	1.9195278
1	0xc0200c13	-2.500737

FCL.fcl1.weight f4 [25, 2]
0	0xbee8c1c3	-0.45460328
1	0x3f4e65bf	0.80624
2	0x3ec899a7	0.39179727
3	0xbf3b67f3	-0.7320549
4	0x3ee765a8	0.45194745
5	0xbf7164cb	-0.9429442
6	0x3f4b8fae	0.7951611
7	0xbf2b99be	-0.67031467
8	0xbea77667	-0.3270752
9	0x3f506bf8	0.8141475
10	0x3f2d6f31	0.6774779
11	0xbf1502f3	-0.58207625
12	0x3f16f473	0.5896675
13	0xbf137cdd	-0.576124
14	0x3f2e7cc0	0.68159103
15	0xbf05110f	-0.51979154
16	0x3e9531cd	0.29139557
17	0x3fa224a4	1.2667432
18	0x3eecb130	0.46228933
19	0xbf431b94	-0.76213956
20	0xbe48636e	-0.1956918
21	0xbf852c3b	-1.0404123
22	0x3f4c9b4a	0.7992445
23	0xbf38303b	-0.71948594
24	0xbf118b7f	-0.5685348
25	0x3f59436c	0.848685
26	0xbe7d990c	-0.24765414
27	0x3f5242db	0.82133263
28	0xbd9b487a	-0.07582183
29	0xbf75ca4b	-0.960118
30	0xbe91d9c9	-0.2848647
31	0xbfa265d9	-1.2687331
32	0xbe803f21	-0.25048164
33	0x3f1b5e3f	0.60690683
34	0x3f006c48	0.50165224
35	0xbef371c8	-0.47547746
36	0xbf3bbc95	-0.7333463
37	0x3f2fc623	0.6866171
38	0x3c4f31d6	0.012646159
39	0xbf715a59	-0.94278485
40	0x3e5ef428	0.21772826
41	0xbf12fab1	-0.57413775
42	0xbeaca506	-0.33719653
43	0xbfa184fd	-1.261871
44	0xbf405775	-0.7513345
45	0x3f2afd2e	0.6679257
46	0x3f19e456	0.6011404
47	0xbeefbe8b	-0.4682506
48	0x3f0dea0c	0.5543525
49	0xbef57175	-0.47938123

FCL.fcl1.bias f4 [25]
0	0x3e03cb8d	0.12870617
1	0xbde2e51e	-0.11078857
2	0xbe01df17	-0.12682758
3	0xbe70271c	-0.23452419
4	0x3dbe2a8c	0.09285459
5	0xbe4eba39	-0.20188226
6	0xbe2dc9eb	-0.16971557
7	0xbe4aa158	-0.1978811
8	0xbdcb5af4	-0.09929457
9	0xbe03c0d2	-0.12866524
10	0x3d8f0852	0.06984009
11	0xbe70f1eb	-0.23529784
12	0x3e27994f	0.16367076
13	0x3d884351	0.066534646
14	0x3d0041fc	0.031312928
15	0x3dcef99f	0.10106205
16	0x3d8f0dde	0.06985067
17	0xbe1457f9	-0.14486684
18	0x3e5a881e	0.21340987
19	0x3bd4bb01	0.006492019
20	0xbd72cf1d	-0.05927955
21	0x3dee8cf3	0.11647978
22	0x3e62557a	0.22102919
23	0xbe345752	-0.17611435
24	0xbe25ff21	-0.16210605

FCL.fcl2.weight f4 [2, 25]
0	0x3e25c5db	0.16188757
1	0xbe45875e	-0.1928992
2	0xbbd9e404	-0.006649496
3	0xbe0b893b	-0.13626568
4	0xb90f6284	-0.00013674243
5	0x3c5f307c	0.013622399
6	0xbdc968bb	-0.09834429
7	0xbd2d1fea	-0.042266764
8	0xbd666617	-0.056249704
9	0xbdd4a586	-0.103831336
10	0x3d3e8357	0.046511974
11	0xbe20e1ef	-0.15711187
12	0x3d38d7cc	0.045127675
13	0x3b90cd76	0.004419024
14	0x3d6b5816	0.057457052
15	0x3daf0984	0.08546737
16	0xbddf8d23	-0.109155916
17	0xbcaa96e0	-0.020823896
18	0x3e2c00d9	0.16797198
19	0x3dd1c6f5	0.10243026
20	0x3ceb1afa	0.028699387
21	0x3dfb8287	0.122807555
22	0x3d92c1d3	0.07165875
23	0xbbc82138	-0.0061074756
24	0x3d42bc79	0.047543023
25	0x3ea67b8b	0.3251613
26	0xbec23d19	-0.3793724
27	0xbe024312	-0.12720898
28	0xbe8ec8e4	-0.27887642
29	0x3e163662	0.14669183
30	0xbdcfcbb0	-0.10146272
31	0xbe8834a5	-0.26602665
32	0xbe416e3c	-0.18889707
33	0x3da5aec3	0.08089974
34	0xbe8872a9	-0.2664998
35	0xbdfc9d5a	-0.123347
36	0xbe9c27a3	-0.3049899
37	0x3e2f8170	0.1713922
38	0x3e21d4e1	0.15803863
39	0xbdd6ac66	-0.10482101
40	0xbd2f6d0d	-0.04282861
41	0x3d63af58	0.055587143
42	0xbe42584e	-0.18978998
43	0x3ea64f76	0.324825
44	0xbd335d53	-0.043790173
45	0xbe2ac84a	-0.16677967
46	0x3ba294a3	0.0049615665
47	0x3e4da6c3	0.20083146
48	0xbe1bd5ed	-0.15218325
49	0xbdb8542f	-0.09000432

FCL.fcl2.bias f4 [2]
0	0x3f15ed8a	0.5856558
1	0x3d5277d0	0.051383793
